checkpoints/W_LSTMix/best_model.pth (torch, 556533 bytes, 88 tensors)

proj_linear_trend.weight f4 [168, 168]
00000000: 5161 abbd 66a5 96bc 8936 48bd 7f0b 7e3d
00000010: e00f 353d f8c0 1ebd b242 15bd 6f16 bbbb
00000020: cc47 16bd 1cda 983c cf70 a2bb f788 223d
00000030: 982b 773d 10ca fd3b dfab e93b 20e5 15bd
00000040: 8666 173c 2dfd cd3a 0723 0fbc eaaa 7a3d
00000050: c1d4 dabc ba9b 2b3c 5523 13bc 2451 863d
00000060: af4c b0bc 8be8 1cbd f1bf 7abd 52a9 7a3d
00000070: 6e6d 193d ecf4 10bd 1dd1 7abb 8f56 18bd
00000080: 1730 033d 760d ebbc 357c 063c d029 143b
00000090: 2a61 77bc 0ebb 70bd cb8e da3c 405e 3f3d
000000a0: d06e 90bc f255 083d b194 92bd 1dd6 0dbd
000000b0: ee3c a83c 2cf0 50bd 443c 723d 9b74 f63b
000000c0: 12a7 adbc 77eb bf3c 8d6a 40bd 0c27 91bd
000000d0: 66a6 413d 1d11 32bd 5f81 6e3d 2b5e a83c
000000e0: e0bb 653d d5ee 1a3d 0eff c43c 8e9c 843d
000000f0: 2612 80bd e56c 0d3d 860d a8bd d9cf aebc
00000100: 23fa 753d f577 643c a35d 92bd 5820 09bd
00000110: 171a 75bd e686 473d 915c 2f3d c6e5 21bd
00000120: cb9a f53c d5a2 313d c445 543d abc1 b0bd
00000130: 878f e6bb c55c 423c 2876 27bd a69a 103d
00000140: ccaa 56bd bcb7 d4bd 9204 1cbd 9d5e 47bd
00000150: f9ad 7fbc cb3f 553b 3d70 d93c 6af3 74ba
00000160: 86f1 c93d efe3 91bc fbd8 813d 5f08 37bd
00000170: b883 943d 5715 a3bb b8c1 233d c82c 9e3d
00000180: fa29 8dbc a618 2bbd 8c75 dc3c 6cad ef3c
00000190: 2f79 d039 2dcc 7dbb ce84 afbd 258d 49bd
000001a0: 62f7 c8bd 35e5 bebb 88e6 d6ba c4b0 003c
000001b0: 2e4e fe3b 1d84 c3bc f87d 01bd d574 0f3d
000001c0: fb25 8abd 2ec7 8dbd 9a8a 8fbd 9865 f7bc
000001d0: dc49 8b3d 0e84 8a3d 9ed9 823d 11ca ac3b
000001e0: aa40 c43d 64a1 6c3d f781 d13c 5763 0a3e
000001f0: dafa 743c 5585 bf3d 47af de3c c5d8 73bc
00000200: 1db9 8e3d bbdc 63bd 291f 323b 9bcc 3b3d
00000210: 5c15 e1bc d3b5 18be e17f cbbd 2c0c 8cbd
00000220: 1b21 f7bd f190 2dbe b991 b2bc 35bd acbb
00000230: 9475 69bc fa48 89bd 1062 233d 76bc f1bb
00000240: 2d3d a43c 5109 52bd f007 be3d 6452 80ba
00000250: 8636 b03c 8de3 aa3d 244c a43d 9e07 2d3d
00000260: 25d7 a33d 308d d33c 24b5 c33d aa11 163e
00000270: 3a6a ba3d 5ecf e93d 8789 fe3d 28d2 853d
00000280: 442d c73d 4bd5 a83d 0680 28bc 3aaf 1b3d
00000290: 8f29 38bd 960f edbd a4bc 44be 5825 0cbf
000002a0: c3fb f63c 083f 09bd c99b fb3b 89f8 403d
000002b0: e66c 1abd 9628 4ebd 42ee 0c3d 63d0 23bc
000002c0: 4b2a 02bc 7f6a 8c3d 58b5 4dbd 1c9e 513d
000002d0: 5fd8 49bd 4586 173d 5ebd 69bd ec0d a23c
000002e0: f566 f9bc 3946 73bd c41f 43bd 5e72 8e3d
000002f0: ebe0 473d 7ee5 1f3d 4442 6dbc 908c 80bd
00000300: 2850 473d 824e c8ba 8da2 90bc b95a 9bba
00000310: c40a 91bc 0914 813c ae62 efba 12d2 683d
00000320: 0754 a6ba 7ddf c03c e266 9cbd a3bf 88bc
00000330: a18b 8abc c165 c13c 04c4 8e3d 75a1 5dbd
00000340: 23b1 0bbd e10a 083d ae23 4abd 5b63 863c
00000350: 8b52 13bb 2c49 283d 505d 023d 519e e2bc
00000360: d082 d93c 4095 0abd 4e4f 9b3d b5a5 853c
00000370: b59f 9dbc 11e6 f43c f1d2 58bb b76c 54bd
00000380: 4ccc 08bd 291e 4abb e685 8fbc 8b7b 8abd
00000390: fe6c ecbb 7f62 a7bd 8726 63bd b321 963c
000003a0: c8a4 133c dc97 643d 9197 d93b c073 b1bc
000003b0: 704e 8d3d 76cf c8bc 08c1 423b 6147 acbc
000003c0: 4b77 a5ba 53b6 bc3d 7cd8 1a3d 26e9 5dbc
000003d0: c89f 13bc b791 463d 0993 e83d e518 8e3d
000003e0: 4ea0 ba3d 8173 0fbd 42fc 98bb 713d b5bc
000003f0: 3ada c8bb 0a72 5cbd c395 8bbd 11e3 d3bb
-0.08368171 -0.018389415 -0.048880134 0.062022682 0.044204593 -0.038758248 -0.03644056 -0.0057094614
-0.036689565 0.01865869 -0.0049572955 0.0396814 0.06034431 0.007745035 0.0071310843 -0.036595464
0.009240752 0.0015715711 -0.0087363785 0.061198153 -0.026712777 0.01047414 -0.008980592 0.06558445
-0.02152094 -0.038307708 -0.061218206 0.061196633 0.037457876 -0.035389826 -0.0038271614 -0.037191924
0.032028284 -0.028692942 0.008208324 0.002260793 -0.015098849 -0.05877214 0.026679417 0.046720743
-0.017630965 0.03328509 -0.07157267 -0.034628022 0.020536866 -0.051010296 0.059139505 0.0075212247
-0.02119783 0.023427708 -0.046976615 -0.07087526 0.04727783 -0.04347335 0.058228847 0.020552715
0.056087375 0.037825424 0.0240474 0.06475173 -0.062534615 0.034527678 -0.082057044 -0.021339344
0.060053002 0.013944616 -0.07146766 -0.03347811 -0.059839334 0.048712634 0.042812888 -0.03952577
0.029981038 0.04336818 0.051824346 -0.08630689 -0.0070361528 0.011862938 -0.040884167 0.035303734
-0.05240898 -0.10386607 -0.038090296 -0.048674215 -0.015605443 0.0032539244 0.026542777 -0.0009344133
0.0986052 -0.017808883 0.06340214 -0.044685718 0.07251686 -0.004976909 0.039979666 0.07723385
-0.01723193 -0.041771553 0.02691152 0.029257499 0.0003976314 -0.0038726435 -0.08570252 -0.04920687
-0.098128095 -0.0058256635 -0.0016395608 0.007854644 0.0077607846 -0.023866707 -0.031614274 0.03502353
-0.067455254 -0.06922756 -0.07008858 -0.03019981 0.06801197 0.06763469 0.063891634 0.0052731116
0.09582646 0.0577711 0.025574667 0.13514458 0.014952386 0.09351603 0.027183188 -0.014883225
0.06968901 -0.055630427 0.0027179217 0.045849424 -0.027476005 -0.1491311 -0.099365 -0.06838259
-0.12066861 -0.16949822 -0.021798002 -0.0052715787 -0.014249224 -0.06703372 0.03988844 -0.0073772026
0.020048702 -0.051278416 0.09278858 -0.0009790179 0.021510374 0.08344183 0.08022335 0.042243592
0.0800002 0.02582416 0.09556034 0.14655176 0.09102292 0.11416505 0.12428575 0.06534225
0.097254306 0.082438074 -0.010284429 0.038008906 -0.04496151 -0.115752384 -0.19212586 -0.5474448
0.030149346 -0.033507377 0.007678483 0.04711202 -0.03770151 -0.050331675 0.034406908 -0.009998414
-0.007944654 0.0685625 -0.05022177 0.051176175 -0.049278613 0.036993284 -0.05706536 0.01978203
-0.030444602 -0.05939314 -0.047637716 0.069554076 0.048798483 0.03903722 -0.014481131 -0.0627681
0.048660427 -0.0015282186 -0.017655635 -0.0011852599 -0.017705329 0.015756624 -0.0018263662 0.056840964
-0.0012689837 0.023544068 -0.07636811 -0.016692942 -0.016912283 0.02360809 0.06970981 -0.054109056
-0.034104478 0.0332135 -0.049350433 0.016404798 -0.002247962 0.041085407 0.03182727 -0.027663382
0.026551634 -0.033833742 0.075834855 0.016314367 -0.019241193 0.02989486 -0.0033084715 -0.05186149
-0.033397958 -0.003084073 -0.017519902 -0.06761845 -0.0072151413 -0.081730835 -0.055456664 0.018326616
0.009011455 0.055808887 0.0066403826 -0.02166164 0.068997264 -0.024512988 0.0029717106 -0.02103013
-0.0012624053 0.09214463 0.03780411 -0.013544356 -0.009010263 0.04847881 0.1135617 0.06938342
0.09112607 -0.035022262 -0.0046687433 -0.022124024 -0.0061295303 -0.053819694 -0.06815674 -0.0064662774

proj_linear_trend.bias f4 [168]
00000000: e24b 443d dc48 6dbc b44d ef3c f800 c23b
00000010: 1d4f aa3d a464 e9bb 6971 6abe f720 a1bc
00000020: 8834 733d 3752 b0bb 8036 833c bc31 53bb
00000030: 7e35 463e 5a7a b53b f5cc 39bf 80c6 e9bd
00000040: e90e 6a3d 92c4 b4bd 5a94 c43c 1db8 2bbc
00000050: ee13 e8bd 459f 27bc f8c5 c3bc 97eb 4bbd
00000060: 8a45 8cbd c865 90be c603 bebe 0a36 d4be
00000070: afb5 1dbf 421c 80bc 073f d5bc 57d8 35bd
00000080: 3879 e6bd 4fb6 0a3b 5735 58bf 697d 6dbe
00000090: f78a 80be 3526 403d 2fdf 09bd c33d 143e
000000a0: c986 dcbd d533 c43c ff8b 5cbf 6e6a 1b3c
000000b0: 8821 9fbc 4e94 67bd 4969 bebc 0b0c 7e39
000000c0: cb7d 14bd 4322 e1bc 2cc6 6cbe 2755 9f3e
000000d0: a777 09be 8d90 90bd a51a ceb8 787c 3cbd
000000e0: e98f febd 805c a13b d433 96be 58c2 d03e
000000f0: 7f46 ddbd be3a 61bd 5746 6fbb 8887 83bd
00000100: 73f4 0fbe 77c4 7c3c e6cf 283c 7744 743e
00000110: 0cd7 05bc 7eff 13be bba8 07bc b441 69be
00000120: 83c0 b33d 7d01 bf3d 9d34 83bd b00e 46bc
00000130: 042e 963d 29b9 a93a 2b1b fdbc 066c cbbd
00000140: dce2 9c3d ec67 813d 109b d6bc 5f40 803c
00000150: dee9 663e ffd1 21bd adb1 c43d 2e7f 5bbd
00000160: 9894 6f3d 81d8 07be 02ab 9dbc c684 863c
00000170: dd1d ee3d 106d e4bd 194f 613d 4681 1d3c
00000180: 357b 373b cbf4 11bb 8bd1 533b 16fd 3cbd
00000190: d1de 603e 6960 e13c d17c b0bb 566e 6dbc
000001a0: a7d3 883c 0610 e9bb 5dcc a13b 972f 62bc
000001b0: 0f0f 90bb efb3 2cbe d9b0 8e3b 3bf6 2c3c
000001c0: c925 f73d bd85 bb3a 66e2 a23d 9e92 223c
000001d0: 357b 5ebe 68d5 11bc ca82 61bd 6ad7 14bd
000001e0: 0998 123e d5e0 213b 4e0c b23d 485e 0f3c
000001f0: f197 273d 86bb 90bc 140c 493c f515 2b3d
00000200: 4a55 a83d cd32 3abb abef 8f3d 3ad6 a03b
00000210: 7167 8d3c 6b08 4eba 0ef9 943b 71c2 c8bc
00000220: 8f2f 91bc 1601 eebb 1dbb 9d3d cbd9 663c
00000230: 2cff 0bbe 29d8 a23b 59a3 0b3d cec2 073d
00000240: 9d5b cf3d de65 ca3c a0a6 dc3d a419 fa38
00000250: 898b 42bc 541e c3ba 1a97 02bd 5ce6 b33d
00000260: 33d9 d2bc bc50 743b 8d3e 3abe 9f2c 8b3e
00000270: 10cb 363e 3dc1 363d e5a5 cebc e823 8a3d
00000280: 31d3 2c3d 85d9 e1bc 3d48 653c 13ad e33d
00000290: e910 57bd 03a8 e6bd 351f 33bd 7c01 6bbc
0.04792393 -0.014482703 0.029211856 0.0059205256 0.08315871 -0.007122593 -0.22894825 -0.01966904
0.05937627 -0.0053808945 0.016017199 -0.003222569 0.19356343 0.005538267 -0.72578365 -0.11414814
0.057143126 -0.08826555 0.02399652 -0.010480908 -0.11331926 -0.010230844 -0.02389811 -0.049785223
-0.06849201 -0.28202653 -0.37112254 -0.4144748 -0.6160535 -0.015638474 -0.02603103 -0.04439577
-0.112535894 0.0021165793 -0.8445639 -0.23192371 -0.25106022 0.046911437 -0.03366011 0.14476685
-0.10767896 0.023950497 -0.8615112 0.009485824 -0.019425169 -0.05653792 -0.023243563 0.00024227814
-0.036252778 -0.027482158 -0.23122472 0.31119654 -0.1342455 -0.07058821 -9.8278084e-05 -0.04601714
-0.124297924 0.004924357 -0.29336417 0.40773273 -0.10804462 -0.05498766 -0.0036510432 -0.06422335
-0.14058094 0.0154277 0.010303473 0.23854242 -0.008168947 -0.14452931 -0.008279975 -0.2277897
0.08776953 0.09326456 -0.064065196 -0.012088463 0.073329955 0.0012948859 -0.030896744 -0.09932713
0.076604575 0.0631865 -0.026196986 0.015655695 0.22550151 -0.03950691 0.096042015 -0.053588085
0.05849132 -0.13266183 -0.019246582 0.016420733 0.1162679 -0.111536145 0.055007074 0.009613341
0.002799702 -0.0022271152 0.0032320942 -0.0461398 0.21959998 0.027511792 -0.005385973 -0.014491638
0.016702486 -0.007112506 0.004937692 -0.013805292 -0.0043963264 -0.16865514 0.004354578 0.010556753
0.12067754 0.0014306825 0.07953338 0.009922652 -0.21726687 -0.008900978 -0.05505637 -0.036338247
0.1431581 0.002470066 0.08693753 0.008750506 0.040916387 -0.017667543 0.012270946 0.041768987
0.082193926 -0.0028411627 0.07028135 0.0049083503 0.017261239 -0.0007859531 0.004546291 -0.02450678
-0.017722873 -0.007263313 0.07701705 0.014090012 -0.13671559 0.004969616 0.034091327 0.033144765
0.10124896 0.024706777 0.10773969 0.00011925705 -0.011874088 -0.0014886358 -0.031882383 0.08784172
-0.025738334 0.0037279567 -0.18187924 0.2718248 0.178509 0.04461788 -0.025225589 0.0674513
0.042193595 -0.027569542 0.013994274 0.11116996 -0.05250636 -0.112625144 -0.043730933 -0.014343616

proj_linear_season.weight f4 [168, 168]
00000000: 7ec4 0dbc a072 4ebc 8702 6ebd 1b05 ca3d
00000010: a1b6 853d 3835 2ebc f2f7 e53c 72b6 12bd
00000020: 1332 14bd a68b afbc f868 a5b8 639e 6c3b
00000030: e586 5bbc 0bd4 92bc e675 263d 1617 9f3d
00000040: f72a 6a3a 326a a83c 6cab f03d dae7 663c
00000050: 3e20 013d eb26 4a3d 4bed 96bd e073 8bbd
00000060: 61b3 14bd bf1b 1fbd 27e4 09bd c686 eb3c
00000070: 5070 943d 5bf2 84bc 3ea2 453c ff83 b3bc
00000080: e526 ce3b 1b7d 973b 54f3 293a d6ca a03c
00000090: c80b 213d 1129 093d 7019 9a3c 53e2 783d
000000a0: 3550 613c f9b7 c9bc 23f6 6b3d 8d09 233c
000000b0: f993 e33c 33a4 0f3c d704 07bd 9ad5 96bc
000000c0: 70d9 663c 6a7a c93b 1f73 59bb 5c42 843d
000000d0: f742 3b3d 0f50 513d f405 9ebb 61a2 3e3c
000000e0: e599 103d 97c4 fa3c 2717 2e3d 553d de3c
000000f0: b7b0 873d 8997 393d 3c79 403d b315 3a3d
00000100: f8d7 d43c 0beb 813c ba58 d03d fe2f 483d
00000110: ad9c 7b3d a7dc 6e3d a9e3 c83c 3c1b 6c3c
00000120: 117f ef3c 80c2 373c 4e3e 1d3c 94b0 a23d
00000130: 989b 913d ce22 333d 3b0e 363d 1bbb fa3c
00000140: c082 a83d 3ecb 5d3d 1d77 833d 73ca 513d
00000150: 2620 af3d ce45 873d cdbc 4f3d f13c cc3d
00000160: fb9b 8a3d 5b77 1b3d 7f79 c93d 8db2 ad3d
00000170: a594 993d 1808 6f3d 558b 943c b8d4 9b3d
00000180: c375 693d 5867 2f3d 712c 7f3d 2920 ec3d
00000190: c3cf 153e 933d 7f3d e2c0 4c3d 7bba a13d
000001a0: 748e c13d e07a 9d3d 81e9 923d a9d0 883d
000001b0: bca3 c23d 2cbd a83d aaf3 e33d d7ba ef3d
000001c0: 9265 e13d 52ea 883d 45a9 173e 4ba9 143e
000001d0: ffd8 0a3e bb30 093e 66bb 373d 7979 663d
000001e0: e7a7 a53d 1a83 823d c7c3 8a3d 008d 1a3e
000001f0: bbce b13d cac5 093e b7bb a03d 49e0 8e3d
00000200: d5a3 073e 22e2 c03d 7380 ee3d ae43 eb3d
00000210: 2f02 d33d 2fec c13d cb5c 073e e0dd e43d
00000220: 7d79 003e 559d 5c3d db5e 273e 2332 193e
00000230: 50e1 e23d adf1 e63d cfbd 8a3d 37eb 1f3e
00000240: a55a d43d 9cb5 313d dbcf 863d 5078 2f3e
00000250: 4653 103e 99b7 de3d df2b 2a3e cab3 a73d
00000260: ada6 8e3d 5118 873d b537 823d 19a0 873d
00000270: 9234 813d d14f ce3d 182d a13d 0b1b f33d
00000280: 900e a33d 5d68 633d bef0 b03d 1c41 863b
00000290: 1fe1 993d 9c2e e93d 7a7d f63d ade6 f63d
000002a0: 90f8 01bd 9811 babc 4316 023d 1b54 58bd
000002b0: 186b eabb c703 693c 3837 373c 390e 92bc
000002c0: bc9e df3d 18b2 75bb 347f 2abc bc25 74bc
000002d0: 6423 c6bd 7a9d c7ba 5a12 213d 28a8 c9bb
000002e0: 4669 98bc 2a03 05bd 0f73 e9bb e61c 1f3d
000002f0: 2dcc 60bd 29e6 46bd 7f6d 673d 6fcf 05bc
00000300: 5fa2 75bc 41c5 7abc e4ca 9f3a c1a3 83bd
00000310: d309 c83c 912b 59bc e7ef 093c 5a8d 8fbd
00000320: 6813 a1bc b682 2fbd 96fd 713d 0d28 c73c
00000330: c51b 36bd 1ac5 9ebb 73c3 013d c709 a5ba
00000340: ab55 7fbd bedc 0dbd 81cd 253b fb37 26bc
00000350: d169 76bd 98ae 69bd 0a10 a8bc 9126 8abd
00000360: db1c 50bd fe84 12bd 90e6 32bd 9d0d 51bd
00000370: 98c6 e1bc 686b fabc a807 0e3b 1504 7ebd
00000380: 4076 b6bc 8eca 31bd b717 70bd 2a24 babc
00000390: b5f9 03bd d021 c6bc 780f b6bc fafc 07bd
000003a0: 5c8f 2bbd a2d2 20bd 3567 41bd 17b3 febb
000003b0: 254d 8ebd 4655 35bd 39f4 10bd 5f75 c6bd
000003c0: e45e 22bd 4294 82bd c997 5bbd e674 1cbd
000003d0: d4d7 29bd f265 9cbd e991 14bd 7e89 96bd
000003e0: fdb0 a0bd 64ee 95bd 92b6 a5bd 7f09 7abd
000003f0: 9ee3 c4bd 36ff aebd 6184 67bd 8ec2 82bd
-0.008652804 -0.012600571 -0.05810788 0.09864255 0.06528974 -0.0106328055 0.028072331 -0.035818525
-0.036180567 -0.021428894 -7.887365e-05 0.0036105148 -0.013398861 -0.017923376 0.04063978 0.07768075
0.0008932794 0.02055845 0.11751446 0.014093364 0.03152489 0.04935352 -0.07369479 -0.06809211
-0.03630388 -0.03884482 -0.03366485 0.028750788 0.072479844 -0.016228845 0.012062607 -0.021913527
0.0062912577 0.004623068 0.0006483097 0.01962797 0.039317876 0.03348643 0.018810958 0.060762715
0.013752033 -0.024623858 0.05760778 0.009951008 0.02778052 0.0087671755 -0.0329636 -0.0184124
0.014089927 0.006148626 -0.003318019 0.064579695 0.04571816 0.05110174 -0.004822487 0.011635394
0.035303015 0.03061132 0.04250255 0.027128855 0.066255026 0.04531053 0.046990618 0.04543085
0.025981888 0.015859148 0.10173173 0.048873894 0.061428715 0.0583159 0.02452262 0.01441079
0.029235395 0.011215806 0.009597374 0.07943836 0.07109755 0.043734364 0.044447165 0.030606797
0.082280636 0.054148905 0.064192034 0.05121846 0.08551054 0.06605111 0.050717164 0.09972561
0.06768032 0.037955623 0.09837627 0.084813215 0.07499055 0.05835733 0.018132845 0.07608932
0.056997072 0.042823166 0.062298242 0.115295716 0.14630036 0.06231458 0.049988635 0.078968965
0.09450999 0.07689452 0.071734436 0.06680424 0.09503886 0.08239207 0.111304596 0.11705559
0.11005701 0.06685318 0.14810665 0.14517705 0.1355934 0.13397495 0.04485645 0.05626819
0.080886655 0.06372662 0.06775623 0.1509285 0.08682009 0.13454357 0.07848304 0.06976373
0.1324609 0.094181314 0.116455935 0.11487518 0.10303151 0.094688766 0.13218991 0.11175132
0.12546344 0.05386098 0.16344778 0.14960532 0.11078131 0.11276565 0.06774484 0.15617071
0.103688516 0.043386087 0.06582614 0.1713574 0.14094266 0.10874862 0.16618298 0.08188589
0.06965385 0.06596435 0.063582815 0.06622333 0.06308855 0.100738175 0.07869929 0.118703924
0.07961762 0.05551945 0.08639668 0.004097117 0.075136416 0.11385843 0.120356515 0.12055717
-0.03173119 -0.022713467 0.03175951 -0.052814584 -0.00715388 0.014222092 0.011182599 -0.017829048
0.10918948 -0.0037490185 -0.010406304 -0.014901575 -0.09674719 -0.0015229427 0.039324142 -0.006154079
-0.018604886 -0.03247372 -0.0071243118 0.03884592 -0.054882217 -0.04855934 0.056500908 -0.008167132
-0.014992326 -0.015305818 0.0012191203 -0.06427718 0.024418747 -0.013255016 0.008419014 -0.070093825
-0.019662574 -0.042849265 0.05907973 0.02431109 -0.044460077 -0.0048452737 0.031680536 -0.0012591415
-0.06233756 -0.034634344 0.0025299492 -0.010145183 -0.06015951 -0.05705127 -0.02051546 -0.06745637
-0.05080877 -0.035771362 -0.043676913 -0.051038373 -0.027560517 -0.030568793 0.0021672044 -0.06201561
-0.022273183 -0.04340606 -0.058616366 -0.022722322 -0.03222056 -0.024186045 -0.022224173 -0.03320024
-0.041884765 -0.039263375 -0.047217567 -0.007772814 -0.06948308 -0.044270776 -0.03538916 -0.096903555
-0.039641276 -0.06375934 -0.05361155 -0.03819742 -0.041465595 -0.07636632 -0.036271963 -0.07350443
-0.07846258 -0.0732086 -0.08091463 -0.061044212 -0.09613727 -0.085447714 -0.05652273 -0.063847646

proj_linear_season.bias f4 [168]
00000000: 801b 2ebd 4f0b 233d add7 5abd 548e 0c3e
00000010: 2140 fd3c 273d 46bc c452 703d 14d3 153e
00000020: 104d 273f 565a 163e 21e1 0f3e 7182 203c
00000030: 7dd4 243d 0bb7 853e aac5 9b3e 9464 57be
00000040: f82f 0a3e 65c7 903e 6c5f 0f3e 81e1 dc3e
00000050: c8fd 9b3e 140e 323e f05d 273e 693d 863e
00000060: 4812 10bc 8f75 94bd c12b 7fbd 141a 1fbd
00000070: ee88 5b3d 5dc1 6b3d aeff 5d3d 446c 4abe
00000080: f92a bbbc f35d b9be ff21 7c3e ceea 46bd
00000090: f21f 1ebd 317d 1dbe 253d 36be 9a0f 40be
000000a0: d74c e13c a7c3 69bd 6f8f a3be fb3d 003b
000000b0: 9bdc a3bc 2c7b dbbc 6e37 cebb 13d9 1dbd
000000c0: 01b8 0cbd ce88 a3bc aefc 6b3c 9316 2ebe
000000d0: 47be 69bd c632 d7bd 64b7 0cbd d6cb 81be
000000e0: 2f05 bebc 902c 62be 4815 afbd 50c7 bdbb
000000f0: 56b9 10be f3eb 8dbc a436 eebd 76e6 5cbd
00000100: cd39 41be 61e7 a8bd c4dc 213d 3a78 21bc
00000110: c03b c0bb 1177 8fbc 11b8 9d3c 71cb 1f3d
00000120: 1012 7b3d 3989 a9bd 3835 e7bd ef6e 20bd
00000130: 3bec be3b 61ec 77be 64af 25be ce48 6c3b
00000140: 2a69 e6bb 384a 283b 6e89 29bc 9256 c93b
00000150: 193d ac3c 7427 4c3c 5270 023d 1ae8 aebd
00000160: d580 98bd b90f 7cbd 68a4 09be caae a7be
00000170: 1584 4cbb 1604 1ebe 284e 60bd a221 2bbe
00000180: 5bca 2abd 3011 2fbd 54fa 103e bdd5 c73d
00000190: 9fd6 66bb 4c96 0abd 1970 00bb 6a03 243d
000001a0: 4375 243d a36f 9b3d e790 06be 4934 ff3c
000001b0: 4496 03bc 5ed3 1bbc bf49 8a3c 498d 6e3d
000001c0: 6df7 ee3c 8f4e d43c a533 6ebc 0145 403b
000001d0: 8052 be3b 9363 bb3c efea 243d 6c93 acbc
000001e0: fc0b f83d 6577 0b3e 7ea9 9e3e 987b 5e3e
000001f0: 1df5 593c de60 f83c b03f 253c 3550 6d3e
00000200: 1fb4 86bc 50f6 d4bc 945f e93b 3e36 d83e
00000210: cd80 253e 2f87 5f3d 8fd6 b13b eacb 1e3b
00000220: 8a42 e03a 0c80 843e f358 673e 791f 95bd
00000230: a3d3 a03d 8043 683f 9d15 0a3f de20 5c3e
00000240: b608 68be 7de7 9a3a 230a 03bc a4d9 2c3d
00000250: d3f2 d6bc 5c58 6d3d 71ef 3abd cc48 033f
00000260: 653f d5bd 61e7 a0bd 5b9e 56be 231b 9ebd
00000270: 7dde 9bbb b04e 07bd 6a3a b6bd 0e6f 59be
00000280: cebb 1b3e 342a 1439 f081 cabe 5992 5dbe
00000290: abe8 babc 2f74 22be 3ea9 e3bd e479 e1bd
-0.042506695 0.039805707 -0.05342834 0.13726169 0.030914368 -0.012099541 0.05867268 0.14631301
0.65351963 0.14682898 0.14050724 0.009796725 0.040241707 0.26116213 0.30424243 -0.21034461
0.13494861 0.28277126 0.14001244 0.43140796 0.30467057 0.17388183 0.16344428 0.26218727
-0.008793421 -0.07248985 -0.062297586 -0.03884323 0.053597383 0.057557452 0.054198913 -0.19767863
-0.02284764 -0.3620449 0.24622343 -0.04856377 -0.038604684 -0.15379788 -0.17796762 -0.18755952
0.02750246 -0.057071354 -0.3194537 0.0019568193 -0.020002654 -0.026792131 -0.006293229 -0.038537096
-0.034355167 -0.019962694 0.014403505 -0.17000799 -0.05706623 -0.10507731 -0.034354582 -0.25350827
-0.023195831 -0.22087312 -0.08548981 -0.005791582 -0.141332 -0.017324423 -0.116315156 -0.053930722
-0.18869705 -0.08247257 0.03951718 -0.009855324 -0.0058664978 -0.01751283 0.019252809 0.039012376
0.061296523 -0.08278126 -0.112894475 -0.039168295 0.0058265007 -0.24211265 -0.16180187 0.0036054137
-0.0070315795 0.0025679003 -0.010347707 0.006144353 0.021025227 0.012460578 0.0318454 -0.085403636
-0.07446448 -0.06153843 -0.13441622 -0.3275054 -0.0031206657 -0.15431246 -0.054762036 -0.16712049
-0.041696887 -0.042741 0.14157993 0.09757564 -0.003522314 -0.03383474 -0.0019598065 0.04004232
0.040150892 0.075896524 -0.13141213 0.031152861 -0.008031432 -0.009510843 0.016880868 0.05824021
0.029170716 0.025916366 -0.01453868 0.0029338005 0.0058081746 0.02287463 0.040263113 -0.02106639
0.12111661 0.13619764 0.30988687 0.21726835 0.0133030685 0.030319627 0.010085985 0.23175128
-0.01644331 -0.025996357 0.0071219895 0.42228884 0.16162415 0.05457228 0.0054271887 0.002423043
0.0017109674 0.25878942 0.22592525 -0.072813936 0.078528665 0.90727997 0.5393923 0.21496913
-0.22659573 0.0011818256 -0.007998022 0.042199746 -0.026238834 0.057945594 -0.045638505 0.51282954
-0.10412482 -0.07856632 -0.20958845 -0.0772002 -0.0047567473 -0.033034027 -0.0889786 -0.2123377
0.1520836 0.00014130102 -0.3955226 -0.21637858 -0.022816023 -0.15864633 -0.11116265 -0.11009577

trend_stack.0.rnn.weight_ih_l0 f4 [32, 8]
00000000: f2b1 84be c46b ccbe b231 9ebd b8d0 143c
00000010: d0e5 b5bd 7854 b53c 33f4 24be b5aa 24be
00000020: b7c2 6fbe 50c8 3b3e 5146 363c b74f b9bd
00000030: e1bc 82bd 86dc 89bd dec5 913e 1a9a 75bd
00000040: bd3e 98bb 60a4 6e3e 618b feba 30d0 353e
00000050: d792 dc3c 0801 0dbd 4dfe 8c3b 738e b63c
00000060: c5f4 c4be c972 d03e fc71 103e 3346 ccbe
00000070: 8d92 aabb 7088 053f c0d7 fabe e19b a83e
00000080: 2429 843d fccb 56be a84c a6be 2bd8 513c
00000090: 0db1 0bbd 5b10 e33d 8613 2b3f 1526 4f3e
000000a0: f648 833d 9f48 95bd 5e6b 4dbc 7099 7d3d
000000b0: 125a d6bd 60b4 a0bc 9eb7 8a3e 82df 8f3e
000000c0: 7438 80be e9e5 3e3d af99 223e 0e8e 943d
000000d0: 9cc1 153d e0b1 85bd 9f24 45be 5f12 af3e
000000e0: dcdb 1b3f d4a9 00be df4b 21bf 14df 9abe
000000f0: e0ee cc3c bf59 7737 7db2 743e cf2a ff3c
00000100: 68ab 3bbd 5227 08bf 699e 613e 8111 13bd
00000110: 6af0 7d3d a06b 99bd 2d8c 5a3d 2e9a 88be
00000120: a050 283e 54c6 873e 30f2 0ebe 5c0d e03d
00000130: f5b3 8f3e edf8 a83d 2857 efbe 15e7 aa3d
00000140: ab23 8cbd 3731 1f3d d631 793d 4b2c 87bd
00000150: 2abf 3d3d 1514 07be 568a 11bc fb68 2bbd
00000160: 4077 6f3d f8e1 193c 1296 553e dcc9 583e
00000170: 02a4 52be 1d07 913d 8ac7 643e fe41 6dbc
00000180: 9a7e d8bc f59a bbbe 9acc 12be c3cf 4fbe
00000190: f033 b6be 0f97 0c3c 1be4 7e3e ce7a b7bc
000001a0: 2ab0 05be bbc5 dbbc 794a 8cbd e690 3d3d
000001b0: ee14 d83d e85d fdbb 46a4 b0bd 1a4f fe3b
000001c0: 3bbb 0abe 34a3 d53c 2e8d 01bf 1402 2e3e
000001d0: b932 52be 84e4 92be f80f a9be 54bd 7f3e
000001e0: 31fa 043e 74fc b63d 7e3a 7c3e 8408 b6be
000001f0: b4e2 743d 59eb f83d a52b a7be 2314 b9bd
00000200: 331d 333e 003b b03e 6149 78bd 58a6 2abe
00000210: f697 3cbe d50f 6f3d f616 90be 10e3 9c3e
00000220: 7f9a 973e 72cf a3be 70ae 293e 0938 f9bc
00000230: 8cfe 6cbe 322f 8dbd 8688 96be 4f92 1abe
00000240: 6cb7 d5bc 5cc8 a4be 4c41 8b3e d8d1 f33f
00000250: fdf5 ccbc 8999 93bf a774 00bb 2e6d 72bd
00000260: 9eb1 01be 0834 ad3e 63cc f53e 4557 b0bb
00000270: 071c 76bd d44c 1d3b 9574 62be 0d83 323f
00000280: be23 0abe ce4e 04be 3abe 0fbe 2cd7 ddbc
00000290: 70f8 053d a83b 363e d62c 353f 5f06 a33e
000002a0: 3f8f 81bd 2281 ec3d 56de 163d aa65 3f3d
000002b0: 3386 67bd f220 1dbe 8fab 13bf f346 5dbe
000002c0: e5ea 623e 9117 19bf 4dd1 b0be 9446 5b3d
000002d0: 7863 013e 0efb 91be 2033 0ebe 8f12 4d3e
000002e0: c66c 76be 12fe d23e 215d c93e 03ba e8bd
000002f0: ccf7 21be 419f e53e 50f2 86be c42c a23e
00000300: 1cc0 acbe 9d66 02bf 1336 0cbd 4d1f 6d3e
00000310: c326 e13c 138a 303e 21e4 913b 719f 9fbc
00000320: 9abc 97bd 5fa8 393e 4ccc f3bd b872 eabc
00000330: c353 623e f312 41be e282 f13d 0f24 91be
00000340: f31f 923d 5463 1a3d f806 b4be 4d0a a2bd
00000350: cb58 563d 93cc 6b3d e4a4 e3bd 877a 993d
00000360: 3413 6fbd bbae 033f fe72 a93d 8d3d fdbe
00000370: e2fe 833e 2451 c53c 33c6 3e3e 0b7f 183d
00000380: a758 3a3e 17ef 8ebe edbd 57be e71b 4a3e
00000390: b10b 2fbe 56b1 36bd 8405 5d3f 89bc 863e
000003a0: 0292 c3be 1b71 543d d4a5 99be 7250 e2bd
000003b0: 0871 b43d a188 28be 69cd 613e ca2b f5bd
000003c0: 0d23 6cbe 856e c4bd 8d1a 9cbd 546c 6d3e
000003d0: eae2 273e f3aa 773d 52cd 0ebf 0875 8c3e
000003e0: 8396 5d3e fa30 b13b c6f0 b2be abd2 89be
000003f0: 4ce4 cebc dae2 9cbe ce1f 503e 2350 84be
-0.25917011 -0.3992597 -0.077243224 0.009082966 -0.08881724 0.022135004 -0.1610878 -0.16080745
-0.23414122 0.18338132 0.011125163 -0.090484075 -0.06383682 -0.06731515 0.28471273 -0.059961416
-0.004646151 0.23304892 -0.00194202 0.17755198 0.026925487 -0.03442481 0.004302776 0.022284722
-0.38467994 0.40712574 0.14105982 -0.39897308 -0.0052054585 0.5216131 -0.4899273 0.32931426
0.064531595 -0.20976251 -0.3248036 0.012807886 -0.034104396 0.11087104 0.66826665 0.20229371
0.064104006 -0.07289242 -0.012537805 0.061913908 -0.10466398 -0.01961726 0.27093214 0.2810021
-0.2504307 0.04660598 0.15878938 0.07253657 0.036561593 -0.065280676 -0.19252251 0.34193704
0.60882354 -0.12564784 -0.63006395 -0.3024832 0.025016248 1.4743243e-05 0.23896213 0.031148342
-0.045817763 -0.53185 0.22033085 -0.035905365 0.061996855 -0.07491231 0.05335634 -0.2668013
0.16437006 0.265185 -0.13959575 0.10940048 0.28066984 0.08250604 -0.46746182 0.08344857
-0.068427406 0.038865294 0.060838543 -0.06600245 0.046324886 -0.13191254 -0.0088830795 -0.041848164
0.058463335 0.009392254 0.20858029 0.21170753 -0.20570377 0.07081435 0.22341743 -0.014481066
-0.026427556 -0.3664166 -0.14335862 -0.20294099 -0.355865 0.008580937 0.24891703 -0.022397425
-0.13055483 -0.026827684 -0.06850142 0.046280764 0.10550867 -0.0077321418 -0.08625083 0.0077608945
-0.13547985 0.026078798 -0.5060605 0.1699298 -0.20527162 -0.2868997 -0.33019996 0.24974567
0.12986065 0.0893487 0.24631688 -0.35553372 0.059786513 0.12154264 -0.32650486 -0.09037044
0.17491607 0.34420013 -0.060616855 -0.16665018 -0.18417343 0.058364708 -0.28142518 0.30641985
0.2961006 -0.31994206 0.16570449 -0.030422227 -0.23143977 -0.068937674 -0.29401034 -0.15094875
-0.026088439 -0.32184112 0.27198255 1.9048414 -0.02501964 -1.153123 -0.001960078 -0.059186153
-0.12665412 0.3382876 0.48007497 -0.005381497 -0.060085323 0.0024002092 -0.22114785 0.6973122
-0.13490197 -0.12920687 -0.1403741 -0.027080141 0.03270763 0.17796195 0.7077154 0.31840798
-0.0632615 0.11548068 0.03683313 0.046727814 -0.056524467 -0.15344599 -0.5768365 -0.21609096
0.22159918 -0.59801584 -0.34534684 0.053534105 0.126356 -0.28511852 -0.1388669 0.20026611
-0.24064931 0.41209465 0.39328864 -0.11363604 -0.15817183 0.44848064 -0.26356745 0.31674778
-0.33740318 -0.50937825 -0.034231257 0.23156472 0.027484303 0.17240171 0.004452244 -0.019485207
-0.0740902 0.18130635 -0.11904201 -0.028619155 0.22102265 -0.18854885 0.11792542 -0.28347823
0.07135 0.037692383 -0.35161567 -0.07912121 0.052330773 0.057568144 -0.11115435 0.07494073
-0.058367923 0.5143849 0.08273886 -0.49461022 0.25780398 0.024086542 0.18630295 0.037230533
0.1819788 -0.27916786 -0.21068545 0.19737206 -0.17094304 -0.044602714 0.8633654 0.26315716
-0.38197333 0.05186568 -0.3000933 -0.110505 0.088106215 -0.1645837 0.22051014 -0.11971243
-0.23060246 -0.095913924 -0.07622252 0.23185855 0.16395155 0.060465764 -0.55782044 0.27433038
0.21639447 0.00540745 -0.3494932 -0.2691854 -0.025255345 -0.30641824 0.20324633 -0.2584239

trend_stack.0.rnn.weight_hh_l0 f4 [32, 8]
00000000: effb 0c3e 9878 363e 86ae 67be 0175 f4bd
00000010: 3f5f 94be 7a60 243e 47b2 99be a219 a7bd
00000020: 23cd 3c3e 622c 9abd 2677 1dbf 29d4 ac3d
00000030: aeaf 823e 2db8 c2be 6742 4ebe bc90 3ebe
00000040: 556b 8cbd ef42 36bd c127 18be 675f 973e
00000050: 6c5b e73d 75f5 39bf 2edc 81bd 33ca 7cbe
00000060: 4a3b a4be abe0 c7be 7c49 78be a59a 303e
00000070: 1c41 fb3e 7fa8 8f3e 5f2d 283f 5b46 303e
00000080: 94d9 463e b9fe a93e 5553 6a3e d8d4 8abe
00000090: c318 453e cce2 eb3c 471c 5c3e c6f8 64be
000000a0: 8b6f 073e f8b5 f3be a206 bbbd 21aa 4ebe
000000b0: b9f0 d4bc 1a77 01be dce0 343e dceb cb3e
000000c0: 331e 62bd b9db c93d e6b1 b3bd df56 cebd
000000d0: df0c fd3e 2218 7bbe 8e21 8fbe 7a49 f13e
000000e0: b9e5 563d 4f85 94be 7c1a 4f3d 310f 81be
000000f0: 537d b0be f239 8dbe c61a 3dbe 7ce9 753e
00000100: 2161 9b3e f6b1 693e 8a66 cf3d 8387 d13e
00000110: cefc 56be 4ed9 79be ffb0 adbe 3cf1 783e
00000120: 1fa0 0f3f e239 d1bd e80e 02bf ae4e 1dbd
00000130: ab73 29be 6fe9 b4be b9f5 833e ea13 903e
00000140: 5878 bd3e 9e21 20bd c0a9 663e 1cd1 e4be
00000150: 2316 1b3e 52c2 42be 4e62 b73e 7bce e13e
00000160: a99a eebd 7e04 8a3c 6012 833e b7bc 83bd
00000170: 1a09 f63d c55e 553e 9b73 303f d992 7c3e
00000180: 5672 ac3e 6848 4cbe 5f4c be3b 0b52 333e
00000190: b20e 2bbe 0bac 933e ee8f 91be 58dd 973e
000001a0: 92f4 90bd d2e8 813e b0da 3f3c 8c2a 22bd
000001b0: c4d9 6e3d 6c0c 40be 52a8 66be 96c6 59be
000001c0: 1c23 39bc 18eb d7bd 9193 b4bb 877c d4be
000001d0: c9e5 d0bc 6878 3f3e c2fe 943e 7fea 8a3e
000001e0: c2cb d83e 26df b7be 6e30 b6be 9107 36bf
000001f0: bfc8 db3e a36f 01bf 04f9 223f 432c d43d
00000200: cc09 42bd 9b60 9cbe 0fbb 2cbd 5dc0 31bd
00000210: c0ad 74be 7d3c 50be 4e25 81be a881 48be
00000220: 76f5 e0be 4b23 aebe e139 443e 0c00 233f
00000230: 9b5d 013e 23a0 a5be 1b50 0ebe 58b7 1ebe
00000240: 92ef 6bbe 853d 513e a75e 88be d820 39be
00000250: 24ff 5a3d 5b46 2ebd 5ced de3d 11d2 9cbe
00000260: 2903 f6bc f7f1 e1bd 3d44 acbd bd2c 193e
00000270: fd74 02bd 6080 a8bd f54c 6e3e 4bb6 f5be
00000280: 07db 7dbd 7d50 16be e09d 14bd 7fb3 2bbd
00000290: b8b0 8abd c87f a2be 36c7 1b3d 7696 6d3e
000002a0: a018 f9bc 419d 88be f92e 71be 6404 e6bc
000002b0: f24c 0fbd d9cb 84be fe66 ad3e 2b62 2a3e
000002c0: 4ff0 d13d 4cb9 833e 5c16 dfbd 73a5 723c
000002d0: 9098 563e 3d08 db3d 54d7 8a3e 6570 81be
000002e0: d423 113e b474 b03c f184 81be 14a5 073c
000002f0: 2a34 a43e a983 abbc c002 d93e 0f64 b1bd
00000300: 7c6e 9e3e 80ac 523e 3991 c6be 8770 913e
00000310: adcf 963d ee73 423d 2b58 c6be cfd6 613a
00000320: ffc3 6e3e b3b5 1c3e 0e97 cebe f9e5 7d3e
00000330: c06a eebd 8e16 8ebe 0a19 9e3e 2a28 c53c
00000340: 0b84 893d 4eda c8be 8fe7 ee3d dbcb 073e
00000350: 4b69 ee3e 1eb2 c9be e952 0c3f 1da8 ea3c
00000360: 3048 abbd fdf2 3b3d 366f 7f3d e0c8 843e
00000370: 5c05 d73e a767 bebe 6e9e bb3d 3cbf 023f
00000380: c866 febd b6b6 913b 8281 9e3e 5fc6 483e
00000390: 7b5c 96be f876 d4bd f0b5 07be 3454 d23e
000003a0: 9a15 3a3e d1fd 20be e1e1 d9be 3368 89be
000003b0: 3cee 5e3d 4f63 dabc 8071 213e e6f9 6e3e
000003c0: 1ade c43e c8b1 81be 9aa6 ab3e a758 a3bd
000003d0: d3af 44be 9e7a 3fbe fa72 debd 1b95 003f
000003e0: fa0b adbc 3450 82be 2195 01bd dc04 f6be
000003f0: 7642 bc3c f9b2 a5be de3c 51bd 963a 5f3e
0.1376798 0.1781944 -0.22625169 -0.11936379 -0.28978917 0.16052428 -0.30018827 -0.08159186
0.18437628 -0.075279966 -0.6150993 0.08438904 0.25524658 -0.3803114 -0.20142518 -0.186099
-0.068564095 -0.044497427 -0.14858915 0.29564974 0.11296734 -0.7264016 -0.06340824 -0.24686508
-0.32076484 -0.39038596 -0.24246782 0.17246492 0.49073112 0.2805824 0.6569423 0.17214338
0.19418937 0.3320215 0.22883351 -0.27115512 0.19247727 0.028794669 0.21495162 -0.22360525
0.13226144 -0.4759977 -0.091321245 -0.20182087 -0.025993692 -0.1264309 0.17663902 0.39828384
-0.05520458 0.09856362 -0.08774166 -0.10075163 0.49423882 -0.24520925 -0.27955288 0.4712637
0.052465174 -0.29007956 0.050562367 -0.25206903 -0.34470615 -0.2758327 -0.18467245 0.24014848
0.3034754 0.22821793 0.1012698 0.409237 -0.20994875 -0.24399301 -0.339241 0.24310774
0.561037 -0.102161184 -0.50803995 -0.038405113 -0.1654803 -0.35334346 0.2577341 0.28140193
0.37005877 -0.03909456 0.22525692 -0.44690788 0.15145163 -0.1901944 0.35817188 0.44102845
-0.11650593 0.016847845 0.25599957 -0.06432479 0.12013455 0.20836933 0.689264 0.24665393
0.3368098 -0.19949496 0.005807444 0.17511766 -0.16704825 0.28842196 -0.28430122 0.2966106
-0.07077898 0.2537294 0.011709854 -0.039591357 0.058313146 -0.18754739 -0.22525147 -0.21267161
-0.011299875 -0.105428874 -0.0055107553 -0.41501257 -0.025500195 0.18698275 0.29100615 0.2713203
0.42342955 -0.35912436 -0.35583824 -0.71105295 0.42926595 -0.5056097 0.6366122 0.10360005
-0.047372624 -0.30542454 -0.04217058 -0.043396343 -0.23894405 -0.20335574 -0.25223774 -0.1958071
-0.43937272 -0.340113 0.19162704 0.63671947 0.12633364 -0.32348737 -0.13897745 -0.15499628
-0.23040608 0.20433624 -0.26634714 -0.18078935 0.053465977 -0.042547565 0.108851165 -0.30629018
-0.030030804 -0.11032479 -0.08411453 0.14958473 -0.03184985 -0.082276106 0.23271544 -0.4799064
-0.06197646 -0.14679141 -0.036283374 -0.041919228 -0.06771988 -0.31738114 0.03803178 0.23201928
-0.03040725 -0.26682475 -0.23553075 -0.028078265 -0.03498549 -0.25936773 0.3386764 0.1663901
0.10250913 0.25727308 -0.108929366 0.014809954 0.20956635 0.10694931 0.27117407 -0.25281063
0.14173824 0.021540023 -0.2529674 0.008279104 0.32071048 -0.020936804 0.4238491 -0.08661663
0.30943668 0.20573616 -0.3878267 0.28406164 0.0736383 0.04747384 -0.38739142 0.0008615078
0.23316954 0.15303688 -0.4034962 0.24794759 -0.11641455 -0.27751583 0.30878478 0.024067003
0.06714638 -0.39229053 0.1166526 0.13261358 0.46564707 -0.39393705 0.5481401 0.028644616
-0.08363378 0.04588603 0.06236192 0.25934505 0.41996276 -0.37188455 0.091610774 0.5107305
-0.12421948 0.0044468297 0.30958182 0.19606923 -0.29367432 -0.10374254 -0.13252997 0.41079867
0.18172303 -0.15721823 -0.42555144 -0.2683731 0.054426417 -0.026658682 0.15765953 0.23337516
0.384507 -0.2533095 0.33525544 -0.079758935 -0.19207697 -0.18699118 -0.10861774 0.50227517
-0.021123875 -0.25451815 -0.03163636 -0.48050582 0.02298091 -0.32363108 -0.051083438 0.21799693

trend_stack.0.rnn.bias_ih_l0 f4 [32]
00000000: 5fff a33e ac14 51be 4ed9 fd3e 9e91 0dbd
00000010: 7218 7c3e 7de5 4bbe 4a61 843e f303 d2bc
00000020: d3dd 883e cc2f c33c d6d8 cfbd 4ae7 423e
00000030: 207a 8dbd 681f 63be 3465 2e3e f763 d3be
00000040: 63ac 36be 6002 7cbe 65fe 84be 06c6 463e
00000050: 35f8 b83d d922 68bd 464a 6e3e 94c4 913d
00000060: 15f6 993b de99 773d 84bb 533f 844f 7b3e
00000070: 5619 423e ac06 77bd 07b5 16be 7a1d 83bc
0.3203077 -0.20418042 0.49579853 -0.0345627 0.246187 -0.19911762 0.25855476 -0.025636649
0.26731738 0.023826502 -0.1014878 0.19033542 -0.06908059 -0.2217995 0.17030793 -0.41287205
-0.17839198 -0.24610281 -0.25975338 0.19411477 0.09031717 -0.05667386 0.2327052 0.071175724
0.0046985247 0.060449474 0.82708 0.24542052 0.18954977 -0.060309097 -0.14717494 -0.016005266

trend_stack.0.rnn.bias_hh_l0 f4 [32]
00000000: 98f7 6abe a3fd 443e 0585 2d3f 4899 babd
00000010: cf46 bfbd 65a9 983b 6251 733d d01d a23e
00000020: ea2e 91be 9361 c1ba 691e b33d a3cf 2a3e
00000030: 3f4c 3ebe c761 853e d461 3fbe 756e ce3b
00000040: bab7 88be cfe0 a2be 4b99 8a3e 917c e0bd
00000050: b5d4 3c3e 4add 8b3d 68c2 833d e4ed b13e
00000060: 437f 9b3e 1e98 28bc ca21 a33e ad2d 9a3e
00000070: 3b51 88be 5507 c23e 1665 ff3c 2a97 713e
-0.22946012 0.1923738 0.67781097 -0.09111267 -0.093396775 0.0046588653 0.059403785 0.3166337
-0.28356105 -0.0014753811 0.08746035 0.1668077 -0.18583773 0.2605116 -0.18689662 0.0062997886
-0.26702672 -0.3181214 0.27070078 -0.10961259 0.18440516 0.06829317 0.064335644 0.3475181
0.3037053 -0.010290174 0.31861717 0.30112973 -0.26624474 0.3789622 0.031176131 0.23592821

trend_stack.0.theta_b_fc.weight f4 [8, 168]
00000000: dcb9 ac3e 8358 91be c373 93bf 3201 3b3f
00000010: f2e8 6f3e d56c b4bd e1ce 2cbe 9ea0 9e3e
00000020: f6d3 953e 27f7 27be 0961 b7be cb1a b4bd
00000030: 720f 003e 4bde 023e 93e7 9a3c d0e3 c43e
00000040: 7c87 ce3d a90f 2e3d 9ab9 10be d84b 933d
00000050: a1a1 353d d8e4 abbe aeea 933d b47d e638
00000060: 25da 9b3c 9f69 8b3c 18be 25bd 4d80 a43d
00000070: 4ad0 cb3d 5cf2 9cbe 5144 a6bd 17a1 753c
00000080: f26d 393d 2222 b5bc e107 20bd bc1c c8bc
00000090: c3c5 ddbb 15ac d0bd df17 cabd 19ca 843d
000000a0: 3d55 10be 8db7 a83d 07eb e73d 6ad1 14be
000000b0: bcc8 863e f5b1 9ebe 05f2 a53c 87cf 7a3d
000000c0: 509e 9abd 3f24 b7bc 7804 d13c adec 193e
000000d0: aea8 243e f460 aabe aa16 8bbc 9e53 403e
000000e0: 84d8 43be b42a cbbd 5107 0fbd 6eb0 953c
000000f0: 04d8 e23d 1687 bebe c3de c23b 510f e1bc
00000100: 23e6 d5bd 49da 4a3e 5a96 ab3d f83c 733a
00000110: 3a49 8b3e ec02 54be 87eb d0bd 2619 4e3e
00000120: 5a86 933c 0f4a f43d 0072 d1bc b536 9dbc
00000130: 7531 e53d 454c 4fbe ec54 12be 77b2 fd3b
00000140: 4857 8cbc 39c1 1d3e 3cd5 e4bd 4c26 083c
00000150: ce95 7a3d 92bd 4a3c 7bcb 0e3e 9745 3abd
00000160: 8f3c 77bd ed3d cebd 6f77 89be df0b 9a3d
00000170: cd7a b0be 81e3 ad3d 93ac 12bc f307 d9bd
00000180: 5ae4 773d 27f4 47bd 4054 65be 3644 cfbe
00000190: 4d11 3b3e 95bf 33be 00ba 3b3d 2f7b c7bd
000001a0: 33b5 88bb d3ba 49be 8fce 233d dd03 31bf
000001b0: 207d 853e 6075 523d c9a5 babd cb38 01bd
000001c0: 8ae3 ad3d 5174 453c e842 77be 4233 00be
000001d0: 2f9d 353e cac8 58be cd33 803c 0807 68bd
000001e0: 5420 663e bd29 f93b 47e7 5fbe cf80 91be
000001f0: 2175 75bd 4947 89bd 5144 26be 332a d33d
00000200: 9545 433e 093d 44be 10a6 49be 85f7 f8bd
00000210: 6760 9cbe d821 153d 5ffe 3ebe 5c01 383d
00000220: c788 983e 06fb bbbd 97be fb3b ed55 82be
00000230: cfbb 85be e4a3 df3a a9b2 fd3c 1af2 c73d
00000240: 182f 8bbc 2006 033e aa44 0fbf ceb7 c4bd
00000250: 9fa1 d63d 6008 48be a0fb 94bb f8b7 fa3d
00000260: bcca c4bc ae9e 803d 24ce babd 9c30 09be
00000270: 9aae f33d accd 88be 77e2 bfbc 27a2 533c
00000280: 6bd8 03bd 9eb4 343c 04f8 e4bc d836 a3bd
00000290: ffbe 713e 6834 dbbe eeed 553e beae c4bd
000002a0: 30f8 64bd aed3 4c3c 5080 523e 6d38 03be
000002b0: eded 343e a4f5 0e3e 88ac 263b b11b 29be
000002c0: 4d13 02be 5457 543e 83c6 fd3e 1fd2 933d
000002d0: 8163 523d da40 6d3d 87f5 5c3d cf00 853d
000002e0: 080c 183e 0bb6 39bd 7efb e83e 73c5 d63e
000002f0: 612b adbc 612f ccbd 07e0 24be 7c7f c5bd
00000300: 8988 c63d 05a4 4bbc 8eaf f7bc 5ffb 833d
00000310: e17c ec3d 949e 7bbd 9772 eebd b7ae 84bd
00000320: d6af 6fbc c2e5 a9bd 5c88 8c3d 8ea0 7fbc
00000330: 0eb8 f33d bc30 91be d5b1 16bd 3e94 8abd
00000340: ef4f afbb 582b 763c 3c4a 90bd 5895 a8bd
00000350: 3252 bcbc 588f 9fbe 1fdf a8bc 7ecb a93a
00000360: 4a6f c5bd 2ada 333c 2ddc 0bbd 77af 543d
00000370: e0db ddbc 3eb1 43bd f1e1 833d c88b f4bd
00000380: 8151 b83c 5ae8 973d e79a 833d c26d 773d
00000390: 3e85 59bd 8872 643d a6ce 4cbd 555b 673d
000003a0: d14d 4fbd b5de 82bc 7cea 38bd c76f bdbd
000003b0: c386 ca3d b1c8 763c a143 93bd a1cf 06bd
000003c0: 7fc0 293c 2c2d 05bd d0b1 b1bc 630c b4bd
000003d0: f828 5b3d 5ef4 913d 228a 56bd 2769 a2bc
000003e0: 3b8a d43d d044 13bd ecef 8cbd f61d 123d
000003f0: bb65 603d bc57 dbba 8f4b d4bc c962 46bd
0.3373555 -0.28387842 -1.1519703 0.730487 0.23428705 -0.088098206 -0.16875793 0.30981916
0.29263276 -0.16402875 -0.3581622 -0.08794173 0.12505892 0.1278011 0.018909251 0.38455057
0.10084435 0.042495403 -0.14133301 0.071922004 0.044343594 -0.3357303 0.07222496 0.00010990669
0.019024918 0.017018137 -0.04046449 0.08032284 0.09951837 -0.30653656 -0.08118499 0.01499202
0.045270868 -0.022111002 -0.039070014 -0.024427764 -0.00676796 -0.10189072 -0.09867834 0.064838596
-0.14095016 0.082381345 0.11324125 -0.1453301 0.26325023 -0.30995145 0.020257005 0.06123307
-0.07549727 -0.02235615 0.025514826 0.15031691 0.16079971 -0.33277094 -0.01697858 0.18781897
-0.19125563 -0.09920254 -0.034919087 0.018272605 0.11076358 -0.37212437 0.0059469654 -0.027473124
-0.10444286 0.19809832 0.08378287 0.00092787994 0.27204305 -0.2070424 -0.10201173 0.20126781
0.0180084 0.11928188 -0.025567055 -0.019191125 0.11191074 -0.20243938 -0.14290208 0.007742222
-0.017131463 0.1540574 -0.11173484 0.008309912 0.06117802 0.012374299 0.13944809 -0.045476522
-0.060360488 -0.10070405 -0.26848933 0.075217955 -0.3446869 0.084906586 -0.008952278 -0.10597219
0.060520507 -0.048816826 -0.2239542 -0.40481728 0.18268318 -0.17553551 0.04583168 -0.09740292
-0.0041719913 -0.19700174 0.03999191 -0.6914652 0.26072025 0.05138147 -0.09113652 -0.031548303
0.08490665 0.012051658 -0.24146616 -0.12519553 0.17735742 -0.21170345 0.0156497 -0.05664733
0.2247327 0.0076038525 -0.21865569 -0.28418586 -0.059926156 -0.0670305 -0.16236998 0.10310783
0.19069512 -0.19163908 -0.19692254 -0.121565856 -0.305423 0.03640923 -0.18651722 0.04492317
0.29791853 -0.09178738 0.007682632 -0.2545618 -0.2611985 0.0017062393 0.03096898 0.09762974
-0.01699023 0.12795305 -0.5596415 -0.096053705 0.104800455 -0.19534445 -0.0045465976 0.122421205
-0.024022453 0.06280266 -0.091213495 -0.1339745 0.11898537 -0.26719415 -0.023423417 0.012917078
-0.032188814 0.011029391 -0.027950294 -0.07969445 0.23608015 -0.4281342 0.20891544 -0.09603642
-0.055900753 0.01250164 0.2055676 -0.12814493 0.17668886 0.13960892 0.0025432426 -0.1651447
-0.12702675 0.20736438 0.49565515 0.07217812 0.051364426 0.057923175 0.05394509 0.06494295
0.1484834 -0.045339625 0.45504373 0.41947517 -0.021138849 -0.09969974 -0.16101085 -0.09643456
0.09694011 -0.012429242 -0.030235078 0.064444296 0.11547256 -0.06143053 -0.1164295 -0.06478637
-0.014629325 -0.08295776 0.06861946 -0.015602244 0.1190034 -0.28357494 -0.036790688 -0.06766556
-0.005350105 0.015024982 -0.07045409 -0.0823161 -0.022988413 -0.3116405 -0.020614205 0.0012954322
-0.09640367 0.010977307 -0.034145523 0.05192515 -0.027082384 -0.047776453 0.06439579 -0.11940724
0.022499802 0.074173644 0.0642603 0.060407408 -0.053105585 0.055773288 -0.050001763 0.056483585
-0.05061132 -0.015975336 -0.045145497 -0.092498355 0.09888985 0.015062497 -0.071906336 -0.032912854
0.010360836 -0.032513782 -0.021691233 -0.08791425 0.053505868 0.071266875 -0.052377827 -0.019825531
0.10377928 -0.035954297 -0.06881699 0.035673104 0.054784518 -0.0016734521 -0.025914935 -0.048434053

trend_stack.0.theta_f_fc.weight f4 [8, 168]
00000000: d9fd 983e c0cd acbd 5d25 bebe 1524 853e
00000010: 0697 e03c bcd6 a4bd 5e2f b33c 7c23 443d
00000020: 02c4 9bbb 8cce fabd 94e7 e8bd edfc b0bd
00000030: af97 6fbb b54e b63d db20 c4bb 7fb8 acbc
00000040: 4ab6 3f3e fe02 293d 5584 7bbd a90d 443d
00000050: cc51 293e 2ab4 15bd 077f 313d 6fcc d53c
00000060: 0acc 963d 7fb0 38bd e5d6 46bd fa59 003a
00000070: 6bf4 3c3e c1f4 83be 5a6e 633c dd32 a537
00000080: d362 123e 1c6d 8d3c a9e1 3dbd ed0a 86bd
00000090: 4404 163e 4f24 0abe 5476 bf3d 83ca ccbc
000000a0: 9222 c9bd 6fa7 b93a 8d90 1e39 33bb d23d
000000b0: 6990 4e3e cd2d 91be e785 e43c 9905 f4bd
000000c0: 6159 d7bd faf6 563d 1ff0 ddbd 7b38 7bbd
000000d0: 2979 ca3d acea c9bd c45b 473d 306b b2bd
000000e0: 6d75 35be 170c 6f3d 4b1e b0bd dfde 49bd
000000f0: 8555 183e d9f9 f7bd 1fb2 0cbc 2a5e 3fbe
00000100: 3400 4fbe 7d4d fabc 10c4 b0bc 53ed c73d
00000110: 5b8c acbc 56c1 11be f23b 07be 64fd 1b3d
00000120: e547 e1bd 450d 8bbd 5869 67bc bb80 3bbc
00000130: 9329 5e39 049a 5abd 0bd4 15be f521 b4bc
00000140: f544 2f3d 2d90 5ebd 7c29 fb3c 0a2c c43d
00000150: 71e8 50bd b500 47be 9e94 523c e647 80bc
00000160: e6c9 2dbc 49a7 febc e8ca 9ebc b027 393d
00000170: 1a86 4fbd d592 8ebd a77b febb f683 51bd
00000180: 8961 46bc 2a20 3dbd b316 0f3a ae87 a8bd
00000190: 8f14 633d d1ca acbd 9a58 e93c 8364 18be
000001a0: 9b74 983b b81d f6bc 45d6 4d3d 4a71 dbbd
000001b0: 34b3 ed3c fc21 89bd 6b99 aebc 623c 5dbd
000001c0: c2c3 ff3c d129 55bc c3ae 88bd 540a 743c
000001d0: 362b 6bbc 1fb1 89bd af2d ee3d fa8c a0bc
000001e0: e215 c7bc 43df 12bd 07cf 09be 8f8d 8ebd
000001f0: d18d dfbd 1f43 a3bc 7601 d13c 0b1b 22bd
00000200: d8ea 7b3d b132 b4bd 2de1 01be 3167 cabc
00000210: 4b90 01be c880 21bd fdd3 9ebd 9883 2b3b
00000220: 8db3 bbba 086b 8cbd 35dd 8bbd 9da9 353a
00000230: 563d 8abd d75b b6bd 6925 d73c 743e 06bd
00000240: 2e83 f2bd 9189 8fbd 6940 41be 2117 b5bd
00000250: 6547 5ebd e423 46bd e038 823c 061c f0bc
00000260: aafb 7ebd f696 10bd a712 83bd 7eef 82bc
00000270: b5d5 923c 0ca2 78bd 2cce f13b aff6 8ebd
00000280: a552 e3bd 5192 babd 651c b63c 4ee9 e13c
00000290: 0a02 0a3e 6289 45be 67f8 923d 9c76 79bd
000002a0: 455d 6fbe f7e6 353e 7b0e 0f3f e6d0 c4be
000002b0: 3147 12be 7a19 9e3d ffd3 98bb 8217 01be
000002c0: 5d06 ecbb 212f 203e d991 953e 76c2 993d
000002d0: 85ae f6bd c835 40be aa8e 113d 5059 023d
000002e0: 04ac 99bd e778 75bc 2b60 383e 310a babd
000002f0: 0165 93bd ba25 b63c 7c40 b1bd d515 42be
00000300: 9d55 983c 38fd f33d 260b 8a3c bc38 4bbc
00000310: b8de 46be bb4c 303e bf07 773d e5f9 90bd
00000320: 90e6 c33c 08e2 cf3d 4c36 1d3d a913 5a3d
00000330: 4028 61bd 9e14 b13d cf07 49bd 4f24 ffbb
00000340: 0ccc 893d 6a55 b9bd 8022 99bd c2d8 1f3d
00000350: 3315 3dbe d5d6 903e da54 193c 210d 59bd
00000360: 3a26 db3d d7df e43c 781a 2d3d 56ad 1a3c
00000370: 5dde 91bd a596 2e3e 299b be3c 935f 7fbd
00000380: f415 573e 49cc 6cbc 8f4d 4f3d 54a2 7c3d
00000390: 9cdb 95be 7a3c 293e 449b cbbc a2bf e33b
000003a0: fb72 2a3e e94e 2cbe a84f f73c a00f 14be
000003b0: a29f 48be 52cc 833d ce3b ed3d 78ef 15be
000003c0: 8550 1b3c 3857 c0bd e799 723d 0d8a 08bb
000003d0: 5d1e dfbd 81a7 bd3d b1b4 b03d 60b8 9bbc
000003e0: 819b a2ba 0d26 fcbd fcb5 60bd 2ff2 94bc
000003f0: 73e1 863d aabb ea3d 501a e1bc 1385 fa3c
0.2988117 -0.08437681 -0.3713788 0.2600409 0.027415764 -0.0804877 0.021873172 0.047885403
-0.0047535906 -0.12246427 -0.11372295 -0.08641992 -0.0036558916 0.08901731 -0.005985362 -0.021084068
0.18721882 0.04126262 -0.0614055 0.04786459 0.1653511 -0.03654877 0.043334033 0.026098458
0.07363136 -0.045090195 -0.048544783 0.000489622 0.18452613 -0.2577267 0.01388129 1.9693218e-05
0.14295511 0.017263941 -0.046357784 -0.06545053 0.14650065 -0.13490413 0.09348741 -0.024998909
-0.09821047 0.0014164279 0.00015121904 0.10289612 0.20172276 -0.28355256 0.02789588 -0.1191513
-0.105150945 0.05248163 -0.10836815 -0.06133316 0.09886391 -0.09859213 0.0486715 -0.08711851
-0.17720576 0.05836114 -0.08599528 -0.049284812 0.14876373 -0.121082015 -0.008587389 -0.18688264
-0.20214921 -0.030554527 -0.021577865 0.09762063 -0.02106302 -0.14233908 -0.13206461 0.03808345
-0.11000041 -0.0678964 -0.014124237 -0.011444266 0.00021187057 -0.053369537 -0.14631669 -0.021988848
0.042790372 -0.054336715 0.03065943 0.09578712 -0.051002923 -0.19433863 0.012852816 -0.015659284
-0.010607218 -0.031085627 -0.019383863 0.045203865 -0.050665 -0.069616 -0.0077662054 -0.05115124
-0.012108215 -0.046173252 0.00054583995 -0.08229004 0.055439528 -0.08437122 0.028484631 -0.14882092
0.0046525723 -0.030043468 0.05025317 -0.107149675 0.029016115 -0.06695935 -0.02131339 -0.054012664
0.031221274 -0.013010458 -0.06673958 0.014895041 -0.014353564 -0.06723236 0.11629807 -0.019598473
-0.024302427 -0.03585745 -0.13457881 -0.06960594 -0.10915721 -0.019929467 0.025513392 -0.03957657
0.06150326 -0.08798731 -0.12683554 -0.024707409 -0.126527 -0.039429456 -0.07755277 0.0026170965
-0.0014320478 -0.06856352 -0.06829301 0.00069298764 -0.0674998 -0.08904236 0.026262956 -0.032774404
-0.11841427 -0.070086606 -0.18872227 -0.08842302 -0.054267306 -0.04837407 0.01589626 -0.029310238
-0.062251724 -0.035300218 -0.06400042 -0.01598334 0.01792417 -0.060701415 0.007379314 -0.06980645
-0.110997476 -0.09109939 0.022230336 0.027577069 0.1347734 -0.19290689 0.07176285 -0.06090413
-0.23375423 0.17763887 0.5588147 -0.38440627 -0.1428497 0.07719703 -0.004663944 -0.12606624
-0.007202907 0.15642978 0.29212835 0.075077936 -0.12045006 -0.18770516 0.035536446 0.031823456
-0.075035125 -0.014982439 0.18005435 -0.09083975 -0.07196999 0.022234786 -0.086548775 -0.18953641
0.018595511 0.11913532 0.01685102 -0.012403663 -0.19420898 0.1721677 0.06031012 -0.070789136
0.023913652 0.10150534 0.03838186 0.053241406 -0.054970026 0.086465105 -0.049079712 -0.0077863107
0.06728372 -0.090494946 -0.074772835 0.039025076 -0.18465118 0.28288904 0.009358609 -0.052991036
0.107006505 0.027938766 0.04226157 0.009440741 -0.071224906 0.17049654 0.023267346 -0.062347006
0.21004468 -0.014453002 0.050611075 0.061678246 -0.2926911 0.16526976 -0.02485431 0.0069503346
0.16645424 -0.16826977 0.03018935 -0.14459085 -0.19592145 0.064354554 0.115836725 -0.14642131
0.009479647 -0.09391636 0.059228804 -0.0020834238 -0.10894463 0.092604645 0.08628214 -0.019008815
-0.0012405963 -0.12311945 -0.054861054 -0.018181888 0.0658597 0.11461575 -0.027478367 0.030581033
