checkpoints/W_LSTMix_finetune/best_model.pth (torch, 556533 bytes, 88 tensors)

proj_linear_trend.weight f4 [168, 168]
-0.08103099 -0.0156498 -0.046093717 0.064606674 0.04679106 -0.03617824 -0.033893786 -0.003217493
-0.034275286 0.020968834 -0.0027562443 0.041768435 0.062298056 0.0095501095 0.008837602 -0.034931686
0.010889592 0.0032522453 -0.0070196893 0.06295367 -0.02487685 0.012423962 -0.0069661764 0.06761227
-0.019495199 -0.036320336 -0.05924596 0.063181095 0.039435185 -0.033225965 -0.001690924 -0.035103723
0.034060407 -0.026728045 0.010088835 0.0040409886 -0.013435985 -0.057244204 0.028137563 0.04818093
-0.016137922 0.03486354 -0.0699035 -0.03286617 0.02243791 -0.04893323 0.06133249 0.009766456
-0.018923698 0.025681663 -0.044723734 -0.06860059 0.049539357 -0.041244734 0.060443513 0.0227696
0.058312416 0.040074278 0.026295595 0.06697295 -0.060340993 0.036683343 -0.07990988 -0.019163387
0.06227031 0.016228983 -0.06910817 -0.031038174 -0.057292692 0.0513873 0.045550857 -0.036791723
0.03268395 0.045990963 0.054371934 -0.08382621 -0.0046608117 0.014103962 -0.038738575 0.037393395
-0.050360765 -0.10182664 -0.03608135 -0.04671985 -0.013688746 0.0051377257 0.028397357 0.00090006576
0.1004212 -0.016008742 0.0652008 -0.042874545 0.07435106 -0.0031072393 0.04184499 0.079050414
-0.015480796 -0.040118143 0.028466087 0.030714067 0.0017302049 -0.0026830654 -0.0846295 -0.048224468
-0.09722704 -0.004985474 -0.00087291416 0.008533625 0.008363018 -0.023337223 -0.031143382 0.03545392
-0.06705692 -0.068848036 -0.069714986 -0.029819174 0.068416186 0.06807977 0.0643547 0.005729808
0.09627164 0.058188926 0.025973173 0.13553298 0.015319044 0.09385437 0.027459903 -0.014707462
0.069739975 -0.055737127 0.0024308201 0.045360014 -0.028204277 -0.15013407 -0.10058108 -0.06974239
-0.12214952 -0.17124616 -0.023616806 -0.0071680807 -0.016178355 -0.06896571 0.037926663 -0.009394842
0.017967576 -0.053444427 0.090563506 -0.0032336465 0.01922135 0.08112504 0.077911615 0.03996905
0.0777923 0.023719246 0.09357249 0.14469494 0.089330085 0.1126644 0.12296503 0.064187914
0.09626761 0.08160722 -0.010942185 0.037541177 -0.045247603 -0.11586105 -0.19323242 -0.55083185
0.029746639 -0.03388649 0.0073652733 0.046912815 -0.03779426 -0.05031059 0.03452059 -0.009820128
-0.007704854 0.06885237 -0.049888976 0.051546443 -0.048886456 0.037392907 -0.05664843 0.020225711
-0.029976757 -0.058898084 -0.04713003 0.07005792 0.049294718 0.03951675 -0.014002316 -0.062270142
0.04918178 -0.00097211084 -0.017065581 -0.0005635779 -0.017041974 0.016468823 -0.001074204 0.057624478
-0.00045712607 0.02437732 -0.07550854 -0.015801314 -0.015993536 0.024551189 0.07066629 -0.053150363
-0.03314849 0.034160543 -0.04841734 0.017318929 -0.0013592988 0.041942317 0.03265577 -0.026859736
0.027329285 -0.033080567 0.076559365 0.017004974 -0.018584343 0.030516556 -0.0027266426 -0.051323846
-0.0329081 -0.0026471096 -0.017137753 -0.067293 -0.0069508664 -0.081532314 -0.055327654 0.018382557
0.008991799 0.055712104 0.006463168 -0.021922193 0.06865252 -0.024942504 0.0024884895 -0.02153444
-0.0017712725 0.09165642 0.03734309 -0.01397083 -0.009379051 0.04818829 0.11332681 0.069179006
0.09094756 -0.035192557 -0.00481669 -0.022233246 -0.006208991 -0.0538714 -0.06819165 -0.00649872
00000000: 93f3 a5bd 0234 80bc c4cc 3cbd 8150 843d
00000010: fca7 3f3d a22f 14bd 36d4 0abd 93dc 52bb
00000020: 3e64 0cbd d5c6 ab3c 1ba2 34bb 6115 2b3d
00000030: 3f2c 7f3d 1078 1c3c 97cb 103c 8714 0fbd
00000040: 426a 323c 9f23 553b 6c05 e6bb dbed 803d
00000050: 89ca cbbc e08d 4b3c 8644 e4bb 4d78 8a3d
00000060: 65b4 9fbc a2c4 14bd e4ab 72bd 1765 813d
00000070: ca86 213d f317 08bd ffa1 ddba ecc8 0fbd
00000080: ed82 0b3d c6f4 dabc a44b 253c 456a 843b
00000090: 9b22 5cbc e678 6abd bf80 e63c 5e59 453d
000000a0: ad33 84bc 12cd 0e3d 9129 8fbd ad9e 06bd
000000b0: b5cf b73c 366e 48bd c737 7b3d 7c03 203c
000000c0: df05 9bbc 5a62 d23c 3c30 37bd 777e 8cbd
000000d0: c8e9 4a3d 3df0 28bd 9e93 773d 5087 ba3c
000000e0: 00d9 6e3d ed24 243d dc69 d73c 1d29 893d
000000f0: 1e28 77bd 4641 163d cba7 a3bd 89fc 9cbc
00000100: 270f 7f3d a5f2 843c 9688 8dbd c543 febc
00000110: beab 6abd 7d7b 523d 8993 3a3d ebb2 16bd
00000120: 9bdf 053d 0561 3c3d 1bb5 5e3d 13ad abbd
00000130: b9b9 98bb 4e14 673c 57ac 1ebd d129 193d
00000140: 1747 4ebd 7c8a d0bd 0aca 13bd 505d 3fbd
00000150: c346 60bc 5e5a a83b 93a1 e83c 64f2 6b3a
00000160: a1a9 cd3d c424 83bc ff87 853d 389d 2fbd
00000170: 5e45 983d d3a2 4bbb a765 2b3d 2fe5 a13d
00000180: 2aa3 7dbc ec52 24bd b631 e93c 119c fb3c
00000190: 0bc8 e23a 5ed6 2fbb 3b52 adbd 0587 45bd
000001a0: f81e c7bd 305d a3bb 47d4 64ba 9ed0 0b3c
000001b0: 0a05 093c b42d bfbc 6820 ffbc 2138 113d
000001c0: 2355 89bd 3300 8dbd bbc6 8ebd 5747 f4bc
000001d0: c91d 8c3d 686d 8b3d 66cc 833d 1dc1 bb3b
000001e0: 112a c53d 8357 6e3d b1c5 d43c 28c9 0a3e
000001f0: bafc 7a3c b836 c03d 97f3 e03c 91f7 70bc
00000200: d5d3 8e3d 9d4c 64bd 654e 1f3b 6ccb 393d
00000210: a80c e7bc bfbc 19be 74fd cdbd 19d5 8ebd
00000220: 8729 fabd 275b 2fbe 0878 c1bc 38e2 eabb
00000230: 7888 84bc e53d 8dbd fd58 1b3d d3ec 19bc
00000240: bd30 933c 8be8 5abd 5c79 b93d 96eb 53bb
00000250: 1876 9d3c e324 a63d 2090 9f3d 96b6 233d
00000260: 9251 9f3d dd4e c23c efa2 bf3d e92a 143e
00000270: b1f2 b63d 98bc e63d 17d5 fb3d f474 833d
00000280: f427 c53d b021 a73d da46 33bc c7c4 193d
00000290: 8d55 39bd 8f48 edbd b8de 45be 5103 0dbf
000002a0: 39af f33c 8fcc 0abd 6458 f13b a727 403d
000002b0: 27ce 1abd 7a12 4ebd 7665 0d3d 9ae4 20bc
000002c0: 0079 fcbb 7902 8d3d 6258 4cbd 5d22 533d
000002d0: 2a3d 48bd 4e29 193d 2f08 68bd 64b0 a53c
000002e0: d191 f5bc 1e3f 71bd 6b0b 41bd 877a 8f3d
000002f0: 42e9 493d 51dc 213d f869 65bc fa0e 7fbd
00000300: d672 493d 41d5 7eba 1ecd 8bbc 13bd 13ba
00000310: 9c9b 8bbc a0e9 863c 4ecc 8cba a507 6c3d
00000320: 6caa efb9 f2b2 c73c 39a4 9abd c271 81bc
00000330: e004 83bc 931f c93c 7db9 903d 32b4 59bd
00000340: b6c6 07bd edeb 0b3d 4351 46bd 6de0 8d3c
00000350: 802a b2ba b5cb 2b3d 0fc2 053d f308 dcbc
00000360: aae1 df3c 7d7f 07bd 28cb 9c3d 044e 8b3c
00000370: 313e 98bc dbfd f93c 79b1 32bb f438 52bd
00000380: a5ca 06bd 217b 2dbb 7964 8cbc ead0 89bd
00000390: 18c4 e3bb 6afa a6bd 409f 62bd 0497 963c
000003a0: 5752 133c 6032 643d fcc8 d33b 2c96 b3bc
000003b0: b199 8c3d 3954 ccbc ed15 233b fe68 b0bc
000003c0: 0b2a e8ba 5cb6 bb3d 11f5 183d e8e5 64bc
000003d0: 97aa 19bc 1661 453d e317 e83d b9ad 8d3d
000003e0: b742 ba3d 1226 10bd 53d5 9dbb 7f22 b6bc
000003f0: cb74 cbbb 42a8 5cbd 10a8 8bbd 37f3 d4bb

proj_linear_trend.bias f4 [168]
0.0351901 -0.007237398 0.018430673 0.0018978043 0.08315673 -0.0024168068 -0.22795326 -0.014247616
0.052181825 -0.0086095 0.009316865 -0.002475783 0.19021975 0.0033247021 -0.7389097 -0.10625044
0.057865307 -0.092806526 0.0092674075 -0.007855198 -0.11133179 -0.0052667074 -0.017488178 -0.042733107
-0.06123554 -0.28035426 -0.38357452 -0.4125624 -0.6129143 -0.009655973 -0.018026287 -0.033652198
-0.10064122 -0.0006918003 -0.8576379 -0.22274463 -0.24741772 0.044471115 -0.02687921 0.1336984
-0.09526722 0.017050965 -0.8755165 0.0102896355 -0.017991515 -0.062342875 -0.016759116 -0.004572166
-0.032764114 -0.032647964 -0.20035432 0.3474419 -0.09403261 -0.07310848 0.0027830247 -0.028158752
-0.12153411 -0.0058272667 -0.2749699 0.444059 -0.09859135 -0.04916818 -0.0034303553 -0.055204224
-0.13680317 -0.004364495 0.0043784175 0.23569849 -0.005126333 -0.12144845 -0.009784861 -0.23505993
0.073508695 0.076607354 -0.05312612 -0.004160406 0.072080515 -0.0017937365 -0.024033448 -0.09259852
0.069417045 0.059781026 -0.017462082 0.024340995 0.21255112 -0.044706825 0.09527313 -0.046510756
0.06518917 -0.13855311 -0.01756845 0.017558109 0.108474165 -0.1097847 0.070522465 0.005342842
0.003041676 -0.0043671066 -0.0025199212 -0.036635634 0.2054962 0.017423296 -0.0018480036 -0.012973196
0.013963724 -0.012274881 0.0006988635 -0.01726992 -0.008939327 -0.17709616 0.0052588815 0.007568232
0.11548352 0.0034759098 0.075286545 0.004588474 -0.22245015 -0.008148393 -0.0507643 -0.03217988
0.13604735 0.005551773 0.07154597 0.0005476953 0.05232883 -0.009345694 0.0012097824 0.030830903
0.07556168 -0.0017718325 0.049821094 0.00033697012 0.020916626 0.0032148564 0.0055614654 -0.022013996
-0.024697935 -0.004607529 0.059654485 0.0058856 -0.12459589 0.0072428756 0.022390015 0.035111837
0.09138119 0.015056626 0.09197813 0.0015882106 -0.009821357 -0.0019591227 -0.03274029 0.08746164
-0.029321851 0.0004154922 -0.16780944 0.2883837 0.18021396 0.03899476 -0.019300766 0.07664062
0.031193282 -0.024692886 0.009069186 0.08670641 -0.050547406 -0.098432615 -0.034016717 -0.012341606
00000000: 7f23 103d b227 edbb ecfb 963c bfbf f83a
00000010: 134e aa3d 4a63 1ebb 946c 69be d56e 69bc
00000020: 9cbc 553d dc0e 0dbc c4a5 183c bf40 22bb
00000030: f7c8 423e 3fe3 593b 3029 3dbf d599 d9bd
00000040: 2c04 6d3d 5911 bebd 53d6 173c 17b3 00bc
00000050: ec01 e4bd 5894 acbb 5e43 8fbc e908 2fbd
00000060: 1ed2 7abd 988a 8fbe e163 c4be 613b d3be
00000070: f4e7 1cbf 1634 1ebc ddab 93bc e3d6 09bd
00000080: fc1c cebd ef59 35ba 288e 5bbf 2b17 64be
00000090: 125b 7dbe 5827 363d ca31 dcbc 3ce8 083e
000000a0: 761b c3bd 77ae 8b3c d921 60bf dc95 283c
000000b0: f162 93bc 3e5b 7fbd 6a4a 89bc 1cd2 95bb
000000c0: aa33 06bd dfb9 05bd af29 4dbe e8e3 b13e
000000d0: 2b94 c0bd e6b9 95bd 6863 363b 2fad e6bc
000000e0: e0e6 f8bd a8f2 bebb dbc8 8cbe b45b e33e
000000f0: 43ea c9bd 9364 49bd d0cf 60bb d31d 62bd
00000100: 2116 0cbe 0a04 8fbb d478 8f3b f25a 713e
00000110: ccfa a7bb f7b9 f8bd ae50 20bc 8db3 70be
00000120: ba8b 963d 51e4 9c3d c69a 59bd 0454 88bb
00000130: f39e 933d cf1b ebba cbe1 c4bc 4ba4 bdbd
00000140: 862a 8e3d f3dc 743d a40c 8fbc c466 c73c
00000150: 00a7 593e 811e 37bd 8f1e c33d 1082 3ebd
00000160: e681 853d dee0 0dbe b6eb 8fbc 06d6 8f3c
00000170: b427 de3d cdd6 e0bd 156e 903d 0213 af3b
00000180: db56 473b f219 8fbb 4325 25bb 3f0f 16bd
00000190: 996d 523e 4dbb 8e3c b638 f2ba 878d 54bc
000001a0: 1ac8 643c 951c 49bc f033 373a a679 8dbc
000001b0: 4176 12bc b258 35be b252 ac3b eefe f73b
000001c0: a082 ec3d 17cc 633b d52f 9a3d e95a 963b
000001d0: f9c9 63be d680 05bc 3aee 4fbd 0dcf 03bd
000001e0: ff4f 0b3e a6eb b53b b286 923d 3693 0f3a
000001f0: c156 563d af1e 19bc 9091 9e3a 1791 fc3c
00000200: 15c0 9a3d d53c e8ba 3411 4c3d 5dab b039
00000210: 5859 ab3c 57b0 523b f43c b63b b256 b4bc
00000220: 5353 cabc c1fa 96bb 4358 743d fedb c03b
00000230: 212c ffbd a555 ed3b 446b b73c 6ed1 0f3d
00000240: 1026 bb3d 11b0 763c 085f bc3d 812b d03a
00000250: c2e9 20bc a064 00bb af1a 06bd 171f b33d
00000260: 6134 f0bc 6bd6 d939 3dd6 2bbe 07a7 933e
00000270: 028a 383e f8b8 1f3d a41c 9ebc c2f5 9c3d
00000280: 0e89 ff3c bc48 cabc ec96 143c 2193 b13d
00000290: cc0a 4fbd 0a97 c9bd 1d55 0bbd 7334 4abc

proj_linear_season.weight f4 [168, 168]
-0.004039467 -0.009434 -0.058026504 0.1030598 0.06842221 -0.007125872 0.028404584 -0.03618619
-0.03645822 -0.023345247 0.0030745855 0.009111725 -0.012504416 -0.012382712 0.042686686 0.07488479
-0.00597676 0.019436302 0.10926682 0.0042840093 0.021733334 0.047246404 -0.07767992 -0.064587675
-0.0281495 -0.0344204 -0.031225925 0.029585527 0.06712836 -0.01897361 0.008373036 -0.021488823
0.0066358047 0.005426689 -0.006003698 0.017814985 0.045888934 0.03644148 0.01786614 0.063380554
0.010866873 -0.026406357 0.05899604 0.011858303 0.029772405 0.0050346726 -0.033308893 -0.015493201
0.015229057 -0.00045840626 0.0022974487 0.06727815 0.04622273 0.054871976 -0.00076471444 0.014561873
0.028227605 0.029571308 0.045958992 0.030260365 0.068763465 0.047346596 0.04949084 0.04479293
0.031914916 0.018031895 0.10335487 0.05151063 0.05798018 0.046042625 0.01976666 0.015671212
0.034512475 0.011743581 0.013752426 0.07948181 0.06473437 0.043973252 0.045256764 0.028732015
0.07270399 0.051577725 0.064720236 0.053100586 0.09151284 0.07555142 0.058353424 0.101957336
0.07136481 0.03678636 0.10251706 0.08622628 0.07411077 0.054067995 0.016233094 0.07140469
0.058708176 0.049733844 0.06821302 0.117861 0.14575313 0.062095128 0.05257187 0.07839823
0.087876655 0.07332348 0.072653115 0.07022284 0.09908625 0.08877811 0.11595367 0.11571136
0.112444155 0.065415755 0.14919955 0.14293459 0.13444024 0.12753569 0.040822305 0.055028282
0.087406784 0.066826105 0.07561427 0.15325381 0.09041005 0.13103412 0.07597742 0.070545614
0.13500842 0.09379247 0.119812205 0.12032193 0.10724853 0.09967262 0.1372408 0.11907344
0.12797648 0.053401783 0.16410431 0.1484602 0.10359685 0.10735913 0.06681032 0.15622556
0.09884128 0.037195098 0.06506623 0.16551034 0.1317628 0.10167707 0.15653099 0.074930705
0.06458962 0.060461633 0.060614333 0.064743385 0.06126824 0.09854895 0.07994914 0.118742615
0.08328449 0.056236256 0.086710595 0.004057704 0.07340788 0.11316495 0.121528134 0.12188663
-0.027004672 -0.020033708 0.034927137 -0.052383944 -0.004798657 0.020084418 0.021761952 -0.013324563
0.11748801 0.0020768258 -0.0034901507 -0.011461151 -0.09716453 -0.008242832 0.03261374 -0.009897498
-0.0234034 -0.033054538 -0.012280402 0.035858426 -0.059819143 -0.05086894 0.049994193 -0.015664717
-0.018826429 -0.018748399 0.0006071348 -0.061815493 0.02540754 -0.009169146 0.012238605 -0.063312374
-0.010249971 -0.037964657 0.06179238 0.025827909 -0.04089186 -0.0063854265 0.035481263 -0.0016665434
-0.060297854 -0.030493205 -0.004920435 -0.012313193 -0.058258437 -0.057736043 -0.017465116 -0.057718318
-0.042707715 -0.03226727 -0.04495581 -0.06179859 -0.032842267 -0.04124613 -0.0006029605 -0.06538798
-0.026658142 -0.045608737 -0.06024044 -0.012282133 -0.026663141 -0.020422356 -0.019578818 -0.031568438
-0.03774267 -0.036047228 -0.049534574 -0.006641702 -0.06677029 -0.048125803 -0.03698095 -0.0952016
-0.04534569 -0.065201186 -0.06280446 -0.054327738 -0.0434124 -0.07844688 -0.036055695 -0.07409066
-0.073458746 -0.075992644 -0.08334964 -0.06474875 -0.096114226 -0.08331599 -0.05369543 -0.0599096
00000000: 815d 84bb 1091 1abc 33ad 6dbd 0411 d33d
00000010: f220 8c3d 2680 e9bb bbb0 e83c f837 14bd
00000020: 3755 15bd 883e bfbc fc7e 493b 5849 153c
00000030: 52df 4cbc dce0 4abc 3cd8 2e3d 325d 993d
00000040: b2d8 c3bb e138 9f3c 48c7 df3d e060 8c3b
00000050: 1b0a b23c 7285 413d a616 9fbd 8b46 84bd
00000060: c899 e6bc 68fc 0cbd 83cd ffbc 595d f23c
00000070: 987a 893d 8b6e 9bbc 0f2f 093c 5409 b0bc
00000080: 2a71 d93b 5ed2 b13b abba c4bb bbf0 913c
00000090: 09f6 3b3d a943 153d 035c 923c aacd 813d
000000a0: f80a 323c 2552 d8bc d5a5 713d 5449 423c
000000b0: 42e5 f33c e5f9 a43b e86e 08bd 32d7 7dbc
000000c0: 4b83 793c 3f56 f0b9 cb90 163b 20c9 893d
000000d0: 0c54 3d3d 70c1 603d 1e77 48ba ec94 6e3c
000000e0: 943d e73c 873f f23c 7f3f 3c3d 96e4 f73c
000000f0: dcd3 8c3d 81ee 413d e8b6 4a3d cb78 373d
00000100: 37b9 023d a0b7 933c b8ab d33d cffc 523d
00000110: a07c 6d3d 3197 3c3d b1ed a13c ea60 803c
00000120: f45c 0d3d 2668 403c db51 613c 5cc7 a23d
00000130: 7493 843d 4c1d 343d 285f 393d 675f eb3c
00000140: d4e5 943d 2a43 533d 0b8c 843d 0080 593d
00000150: 156b bb3d b4ba 9a3d 0004 6f3d 02cf d03d
00000160: b727 923d 4bad 163d 77f4 d13d 6797 b03d
00000170: 63c7 973d 6776 5d3d 44fb 843c 9f3c 923d
00000180: fc77 703d b7b5 4b3d 45b3 8b3d 1c61 f13d
00000190: 4f40 153e 7657 7e3d 9a55 573d 408f a03d
000001a0: adf8 b33d 9f2a 963d 28cb 943d fed0 8f3d
000001b0: bbed ca3d 4cd1 b53d 1e79 ed3d 14fa ec3d
000001c0: 1f49 e63d b2f8 853d c4c7 183e 725d 123e
000001d0: b4aa 093e b798 023e 4a35 273d 5665 613d
000001e0: 5402 b33d 20dc 883d a8db 9a3d 91ee 1c3e
000001f0: e728 b93d cf2d 063e 0d9a 9b3d 387a 903d
00000200: a63f 0a3e 4416 c03d 1a60 f53d 586b f63d
00000210: 1ea5 db3d 2921 cc3d da88 0c3e c7dc f33d
00000220: 440c 033e d4bb 5a3d f60a 283e f305 183e
00000230: 962a d43d 1bdf db3d d9d3 883d 98f9 1f3e
00000240: 4c6d ca3d e359 183d 7241 853d 8b7b 293e
00000250: d4ec 063e 113c d03d a949 203e 4575 993d
00000260: 9047 843d 9ea6 773d bc46 783d 2e98 843d
00000270: 68f4 7a3d 08d4 c93d 60bc a33d 542f f33d
00000280: 0f91 aa3d fd57 663d 5395 b13d 7df6 843b
00000290: df56 963d 06c3 e73d bee3 f83d b39f f93d
000002a0: e738 ddbc bb1d a4bc c20f 0f3d 8c90 56bd
000002b0: 0d3e 9dbb 1488 a43c 1f46 b23c 454f 5abc
000002c0: 8e9d f03d 5b1b 083b 03bb 64bb 8dc7 3bbc
000002d0: 32fe c6bd f10c 07bc fc95 053d 1e29 22bc
000002e0: 7db8 bfbc 3264 07bd bd33 49bc 49e0 123d
000002f0: eb04 75bd f35b 50bd b6c6 4c3d 4b53 80bc
00000300: e239 9abc 3e96 99bc 2028 1f3a 3e32 7dbd
00000310: 7923 d03c 303a 16bc 6e84 483c eba9 81bd
00000320: 7fef 27bc d480 1bbd 021a 7d3d 0d95 d33c
00000330: 397e 27bd d73c d1bb cd54 113d eb6f daba
00000340: e2fa 76bd e3cc f9bc 9a3b a1bb 46bd 49bc
00000350: 66a0 6ebd a17c 6cbd 0113 8fbc 0b6a 6cbd
00000360: 49ee 2ebd af2a 04bd 9523 38bd 8520 7dbd
00000370: 9d85 06bd b4f1 28bd ff0f 1eba 22ea 85bd
00000380: 2d62 dabc 3ad0 3abd aebe 76bd 003b 49bc
00000390: a96c dabc c94c a7bc c263 a0bc e84d 01bd
000003a0: 0f98 1abd 42a6 13bd c4e4 4abd a2a2 d9bb
000003b0: ddbe 88bd 901f 45bd 5679 17bd 0ef9 c2bd
000003c0: 67bc 39bd 3388 85bd a09f 80bd c386 5ebd
000003d0: 33d1 31bd c2a8 a0bd 23af 13bd d8bc 97bd
000003e0: 8a71 96bd 08a2 9bbd 37b3 aabd fe9a 84bd
000003f0: 89d7 c4bd 93a1 aabd bdef 5bbd c563 75bd

proj_linear_season.bias f4 [168]
-0.045072887 0.04295705 -0.054857988 0.13514805 0.030196482 -0.01173785 0.059093185 0.1467212
0.6513054 0.14698821 0.14460704 0.010111765 0.037705142 0.26170242 0.30436912 -0.2095066
0.13330641 0.2889552 0.14167395 0.43534863 0.30208692 0.17907023 0.16709803 0.2651373
-0.0064346404 -0.06873711 -0.060442444 -0.03797431 0.056860697 0.061422188 0.05216666 -0.19423023
-0.019446552 -0.3651279 0.2497156 -0.048608743 -0.0424512 -0.14961492 -0.17617211 -0.19170818
0.028540235 -0.047423143 -0.31304935 0.0012044377 -0.013918507 -0.02935184 -0.012692987 -0.034430496
-0.033451132 -0.019094298 0.013459996 -0.16942868 -0.05851129 -0.100247554 -0.029133499 -0.2502405
-0.024114404 -0.2156005 -0.085814044 -0.0016983909 -0.13792326 -0.021588098 -0.113591686 -0.05842688
-0.1878433 -0.08033806 0.039561402 -0.013439299 -0.0073056878 -0.014082046 0.019937988 0.03790984
0.05845411 -0.087259434 -0.108792506 -0.039264917 0.006999132 -0.24690327 -0.16850285 0.00031301967
-0.011346293 -0.0003781723 -0.0075039063 0.008153329 0.018198887 0.0109727 0.03583823 -0.08782228
-0.07456218 -0.05894005 -0.1348751 -0.3269274 -0.0044510984 -0.15506448 -0.056641925 -0.17048316
-0.036528874 -0.048230674 0.13878393 0.09776835 -0.0054737506 -0.031976633 0.0017712426 0.037261304
0.03364917 0.067715086 -0.1352371 0.02888548 -0.008412651 -0.008981112 0.0208838 0.057835538
0.032036964 0.033154435 -0.01495526 0.0084882425 0.010399302 0.022745326 0.04534902 -0.020690463
0.12216101 0.13652776 0.30608836 0.21968155 0.009516627 0.032914605 0.009012823 0.23553388
-0.007026922 -0.024438104 0.010334305 0.4263442 0.16013037 0.042123206 0.0066027516 0.005954433
0.0061915754 0.25843644 0.22049595 -0.07460023 0.07134207 0.9065459 0.54021686 0.21912274
-0.22075936 0.00385777 -0.0065241735 0.04300503 -0.02759494 0.06644986 -0.042945325 0.52153957
-0.10344201 -0.08232077 -0.19903322 -0.0759165 -0.005258072 -0.030956533 -0.09022062 -0.21496491
0.15312752 0.002792097 -0.39114663 -0.21311924 -0.02041759 -0.1595937 -0.114779964 -0.11689891
00000000: 599e 38bd bbf3 2f3d c5b2 60bd 4064 0a3e
00000010: 9d5e f73c 1c50 40bc b20b 723d 153e 163e
00000020: f3bb 263f 1484 163e de13 143e d1ab 253c
00000030: b570 1a3d dcfd 853e 45d6 9b3e e688 56be
00000040: 7a81 083e f0f1 933e fa12 113e 04e6 de3e
00000050: 23ab 9a3e 305e 373e bf1b 2b3e 14c0 873e
00000060: add9 d2bb 0bc6 8cbd 7f92 77bd f38a 1bbd
00000070: c3e6 683d d595 7b3d b5ac 553d 4ae4 46be
00000080: 604e 9fbc 0bf2 babe 72b5 7f3e f619 47bd
00000090: 4fe1 2dbd a734 19be 7666 34be 264f 44be
000000a0: 36cd e93c c53e 42bd 0148 a0be 39de 9d3a
000000b0: 730a 64bc 4573 f0bc 3ff6 4fbc fe06 0dbd
000000c0: 0e04 09bd a56b 9cbc 5187 5c3c b67e 2dbe
000000d0: 89a9 6fbd 974e cdbd 60a9 eebc 861f 80be
000000e0: 928b c5bc 61c6 5cbe 46bf afbd 8b9c deba
000000f0: c13b 0dbe 86d9 b0bc c2a2 e8bd 0651 6fbd
00000100: fe59 40be 4888 a4bd 230b 223d 8130 5cbc
00000110: 8d64 efbb 62b8 66bc fe54 a33c 5947 1b3d
00000120: 946d 6f3d 13b5 b2bd 9bce debd 40d4 20bd
00000130: fa58 e53b 36d4 7cbe 038c 2cbe ca1c a439
00000140: cde5 39bc 6d45 c6b9 54e3 f5bb 8a95 053c
00000150: d515 953c d7c6 333c 1ccb 123d 2bdc b3bd
00000160: 0eb4 98bd 1f6b 71bd b31c 0abe 0763 a7be
00000170: 85da 91bb 39c9 1ebe 5d01 68bd 2393 2ebe
00000180: 4d9f 15bd 878d 45bd 601d 0e3e c63a c83d
00000190: 265d b3bb eef9 02bd 0a29 e83a 4f9f 183d
000001a0: b6d3 093d 35ae 8a3d 987b 0abe 3ea1 ec3c
000001b0: 37d5 09bc 8425 13bc 8114 ab3c f5e4 6c3d
000001c0: 3139 033d f2cc 073d e806 75bc 4512 0b3c
000001d0: d561 2a3c 6854 ba3c e5bf 393d 0c7f a9bc
000001e0: 8d2f fa3d efcd 0b3e 9db7 9c3e 33f4 603e
000001f0: a0eb 1b3c 77d1 063d 85aa 133c cb2f 713e
00000200: 1842 e6bb 6b32 c8bc 3851 293c c949 da3e
00000210: 37f9 233e 6289 2c3d e55b d83b 681d c33b
00000220: b3e2 ca3b c851 843e b1c9 613e 01c8 98bd
00000230: cb1b 923d 6413 683f a74b 0a3f b661 603e
00000240: be0e 62be a4d2 7c3b bcc8 d5bb 0b26 303d
00000250: c90e e2bc dd16 883d 70e7 2fbd 9e83 053f
00000260: 68d9 d3bd cb97 a8bd 5dcf 4bbe 1c7a 9bbd
00000270: e84b acbb 8e98 fdbc 97c5 b8bd c31f 5cbe
00000280: 76cd 1c3e 9dfb 363b 5f44 c8be ee3b 5abe
00000290: ca42 a7bc 886c 23be c211 ebbd b268 efbd

trend_stack.0.rnn.weight_ih_l0 f4 [32, 8]
-0.24213547 -0.3922634 -0.07079744 0.0044259704 -0.0861489 0.008468305 -0.16014636 -0.15208742
-0.22390169 0.17093967 0.013133997 -0.08951903 -0.07121895 -0.06861283 0.282894 -0.059526224
-0.0041184775 0.22630745 -0.0021964982 0.18755947 0.02405359 -0.03500024 0.0077722026 0.022030948
-0.38870978 0.4147308 0.14649552 -0.4039334 -0.006274615 0.52361226 -0.48466033 0.3393588
0.06857863 -0.21239752 -0.31905702 0.0058730463 -0.028884245 0.10644956 0.6601412 0.18189353
0.06324842 -0.0667979 -0.005511311 0.058113474 -0.10936743 -0.031914566 0.2609719 0.27565366
-0.2468348 0.04927283 0.15909427 0.06615595 0.03742399 -0.061423834 -0.19205546 0.35814884
0.61448973 -0.120625265 -0.62297034 -0.31187287 0.023515362 -0.0037737584 0.24375309 0.029372703
-0.031773064 -0.53178763 0.21819718 -0.03614939 0.057597198 -0.0791271 0.055543475 -0.25507438
0.16833831 0.2696297 -0.13797995 0.10927099 0.27795622 0.07925023 -0.4657042 0.085062236
-0.051815763 0.043859694 0.076723166 -0.07291592 0.034017097 -0.14828596 3.3713973e-06 -0.033527255
0.05403683 0.021231329 0.21852884 0.21126749 -0.19882032 0.077858485 0.23261611 -0.008965509
-0.02398875 -0.36543074 -0.1418284 -0.20560066 -0.35639134 -0.0005876716 0.24574128 -0.029581163
-0.1423779 -0.023282677 -0.06487497 0.045514908 0.11273075 -0.0075782216 -0.097607814 0.010065273
-0.13557895 0.02539213 -0.51226795 0.16735421 -0.21003836 -0.27636245 -0.32930797 0.24632816
0.11835535 0.09846875 0.24443501 -0.3500053 0.052828755 0.11390517 -0.3274743 -0.093502715
0.17044318 0.34926036 -0.06556342 -0.16739884 -0.18188936 0.06482751 -0.28414825 0.30740598
0.3001832 -0.333731 0.17000566 -0.020832375 -0.23491305 -0.06402356 -0.28766972 -0.14856304
-0.023844004 -0.32184824 0.2721112 1.9095489 -0.02600556 -1.1839782 -0.0019044926 -0.060081802
-0.12786864 0.33711484 0.48457807 -0.004603548 -0.06095215 0.0046009123 -0.2267483 0.7129926
-0.13432802 -0.13471663 -0.13877477 -0.020650987 0.030723218 0.16719835 0.71241724 0.31360555
-0.062773384 0.11912522 0.034680344 0.04355038 -0.062795654 -0.14602801 -0.5859066 -0.20804144
0.2235053 -0.5934698 -0.35494766 0.05123068 0.12686212 -0.2758951 -0.13976829 0.19950704
-0.2498843 0.42477894 0.395729 -0.11921314 -0.15483353 0.44338265 -0.2698679 0.32506174
-0.31938234 -0.50930285 -0.03094724 0.23037288 0.025190666 0.16618659 0.0056619155 -0.018942442
-0.060424972 0.17215492 -0.12139959 -0.02809827 0.21814342 -0.18586874 0.11202908 -0.29329434
0.07813772 0.025710296 -0.34117144 -0.07559363 0.047582645 0.057031434 -0.106562585 0.070807144
-0.057596654 0.51217836 0.087380774 -0.49742275 0.25992757 0.027354056 0.1898849 0.04276041
0.1852467 -0.27878073 -0.20774704 0.19407925 -0.16875638 -0.055327084 0.852932 0.25155732
-0.38897476 0.06284319 -0.29643342 -0.112871476 0.090104744 -0.17590961 0.20925833 -0.114551626
-0.23027633 -0.09110966 -0.075775415 0.22928578 0.15760839 0.06989858 -0.54932773 0.27872434
0.22501181 0.015062837 -0.3414438 -0.2802649 -0.024081385 -0.30780846 0.21161017 -0.25173083
00000000: 5cf2 77be c0d6 c8be 40fe 90bd bb07 913b
00000010: d66e b0bd a5be 0a3c 68fd 23be cebc 1bbe
00000020: 7c46 65be cf0a 2f3e fa2f 573c c155 b7bd
00000030: 3edb 91bd e284 8cbd 7bd7 903e c5d1 73bd
00000040: 4bf4 86bb 24bd 673e 20f3 0fbb 970f 403e
00000050: 090c c53c 695c 0fbd f6ad fe3b 3f7a b43c
00000060: f804 c7be 9857 d43e ec02 163e 5cd0 cebe
00000070: 499b cdbb 740b 063f 6625 f8be 70c0 ad3e
00000080: f472 8c3d bc7e 59be 715b a3be af72 c03b
00000090: a79e ecbc 3a02 da3d 04ff 283f 4c42 3a3e
000000a0: 6388 813d 56cd 88bd 3a98 b4bb 6508 6e3d
000000b0: 08fc dfbd d9b8 02bd 1c9e 853e 7a22 8d3e
000000c0: 43c2 7cbe 4fd2 493d 9ce9 223e c57c 873d
000000d0: e649 193d 8f97 7bbd 30aa 44be 495f b73e
000000e0: 334f 1d3f 610a f7bd fc7a 1fbf cdad 9fbe
000000f0: 4aa3 c03c 2951 77bb 699a 793e 069f f03c
00000100: 7924 02bd 3c23 08bf 156f 5f3e 6211 14bd
00000110: 0aeb 6b3d 640d a2bd 8e81 633d 1c99 82be
00000120: e160 2c3e e70c 8a3e 9e4a 0dbe 78c9 df3d
00000130: 4750 8e3e f24d a23d c870 eebe 1c35 ae3d
00000140: c43c 54bd 39a6 333d 0921 9d3d f154 95bd
00000150: 8355 0b3d 46d8 17be 2a40 6236 e053 09bd
00000160: b955 5d3d 53ed ad3c 06c6 5f3e 8156 583e
00000170: 8e97 4bbe 4574 9f3d eb32 6e3e 12e4 12bc
00000180: 0e84 c4bc bd19 bbbe 773b 11be fb88 52be
00000190: ed78 b6be f90d 1aba 9aa3 7b3e 3254 f2bc
000001a0: 83cb 11be 50bb bebc 2bdd 84bd d76d 3a3d
000001b0: 61df e63d bb52 f8bb 9be6 c7bd d1e8 243c
000001c0: 35d5 0abe 2803 d03c fe23 03bf e75e 2b3e
000001d0: 4c14 57be 617f 8dbe 0e9b a8be 733d 7c3e
000001e0: 4a64 f23d fca9 c93d 2c4d 7a3e e533 b3be
000001f0: f762 583d 1d47 e93d b6aa a7be 5a7e bfbd
00000200: a888 2e3e 41d2 b23e 1d46 86bd 9a6a 2bbe
00000210: 3441 3abe 49c4 843d e17b 91be 5164 9d3e
00000220: 9db1 993e cade aabe f715 2e3e a8a8 aabc
00000230: 0c8d 70be c91e 83bd 7249 93be e920 18be
00000240: 8054 c3bc 4bc9 a4be 2952 8b3e 196c f43f
00000250: 9d09 d5bc 998c 97bf 2ba0 f9ba 5618 76bd
00000260: ffef 02be 519a ac3e 9e1a f83e 5cd9 96bb
00000270: f6a8 79bd 40c3 963b b530 68be af86 363f
00000280: 498d 09be 28f3 09be f91a 0ebe 422c a9bc
00000290: 42af fb3c 0b36 2b3e fa60 363f e890 a03e
000002a0: 558f 80bd ecf7 f33d fa0c 0e3d e261 323d
000002b0: 029b 80bd 5e88 15be fafd 15bf d108 55be
000002c0: 93de 643e a3ed 17bf b3bb b5be 43d7 513d
000002d0: 25e8 013e 1f42 8dbe 6b1f 0fbe 934b 4c3e
000002e0: ace1 7fbe a07c d93e fe9c ca3e 0526 f4bd
000002f0: ae8c 1ebe 0d03 e33e 202c 8abe 7e6e a63e
00000300: 1586 a3be ac61 02bf 1185 fdbc dee6 6b3e
00000310: a85c ce3c d12c 2a3e 9787 b93b 2e2d 9bbc
00000320: 2d80 77bd 6149 303e 59a0 f8bd 582e e6bc
00000330: fd60 5f3e 6054 3ebe 816f e53d ad2a 96be
00000340: ab06 a03d 669e d23c 06ae aebe d5d0 9abd
00000350: 05e6 423d cb99 693d 7c3d dabd 5603 913d
00000360: 78ea 6bbd 1f1e 033f b1f4 b23d 32ae febe
00000370: 3a15 853e 9d15 e03c 3071 423e 8a25 2f3d
00000380: 50b1 3d3e 59bc 8ebe a4bb 54be b6bc 463e
00000390: 79ce 2cbe a79e 62bd c059 5a3f 1fcc 803e
000003a0: b327 c7be eeb3 803d 1fc6 97be 2929 e7bd
000003b0: d688 b83d a621 34be d147 563e 0b9a eabd
000003c0: 8fcd 6bbe b497 babd 2430 9bbd e4c9 6a3e
000003d0: 1864 213e fd26 8f3d bea0 0cbf f5b4 8e3e
000003e0: 7f69 663e 1eca 763c b9d1 aebe e27e 8fbe
000003f0: 5346 c5bc 1299 9dbe 56b0 583e dde2 80be

trend_stack.0.rnn.weight_hh_l0 f4 [32, 8]
0.13831519 0.17919037 -0.22717355 -0.10510023 -0.28959897 0.16376026 -0.29809925 -0.07429464
0.18496518 -0.06882734 -0.60584706 0.09208232 0.2618478 -0.3923982 -0.20150149 -0.18143521
-0.06841948 -0.041578565 -0.14390023 0.28991017 0.119786866 -0.73414207 -0.06148275 -0.25086156
-0.32865843 -0.39838117 -0.24350846 0.16550294 0.4998546 0.28444466 0.6528224 0.1813874
0.19283433 0.33760992 0.23216186 -0.2600923 0.1889025 0.031790044 0.21756828 -0.22477861
0.1331501 -0.47501877 -0.09046495 -0.20167473 -0.026196351 -0.12873532 0.17660804 0.40040928
-0.05522596 0.09694867 -0.086018436 -0.106010035 0.49482456 -0.24043888 -0.27820575 0.47559142
0.045541335 -0.29585406 0.04330393 -0.26119152 -0.337028 -0.27354518 -0.1804999 0.24224083
0.30533677 0.22730568 0.09867538 0.4192328 -0.21301156 -0.24078687 -0.33776924 0.2475926
0.5637116 -0.10087298 -0.4993879 -0.033995885 -0.16269305 -0.3592143 0.25742266 0.28719383
0.37394026 -0.032525137 0.23431666 -0.4358424 0.15251505 -0.19202055 0.35939458 0.442023
-0.114810355 0.0123031195 0.25429654 -0.060045406 0.117479526 0.21085803 0.6833706 0.24941762
0.3368892 -0.19623269 0.0031337943 0.17704754 -0.1728085 0.2937935 -0.2841207 0.29717642
-0.070256576 0.2551477 0.019780569 -0.039710417 0.048386928 -0.18500094 -0.22579141 -0.2113964
-0.014703755 -0.108435206 -0.009272811 -0.4235652 -0.02436494 0.19352904 0.2934815 0.27855825
0.42015305 -0.36175522 -0.35918885 -0.71494514 0.42871922 -0.49729535 0.6413149 0.104280755
-0.038701434 -0.30076036 -0.037029587 -0.047979366 -0.23668261 -0.21051057 -0.2536975 -0.19961359
-0.4366425 -0.3416004 0.18723622 0.6325559 0.13005272 -0.3264739 -0.14217263 -0.16049169
-0.23346561 0.20394175 -0.26154554 -0.18270905 0.053984843 -0.03884111 0.113098435 -0.30434093
-0.025985558 -0.106158875 -0.08226436 0.14907508 -0.03362495 -0.087782614 0.2291388 -0.48342532
-0.06647314 -0.14930537 -0.036065873 -0.043198522 -0.06700002 -0.31292418 0.041660238 0.23085165
-0.029192518 -0.26667485 -0.23938186 -0.029185932 -0.03345351 -0.26040894 0.3385737 0.16720761
0.100501 0.25448984 -0.10685075 0.007813873 0.21184897 0.11198737 0.27479973 -0.25028744
0.14254786 0.01999925 -0.25650457 0.0056015584 0.32083064 -0.020737968 0.42203134 -0.08544915
0.31099123 0.20662643 -0.3895237 0.2967981 0.07390163 0.048838668 -0.38387874 0.007242649
0.23495726 0.15777981 -0.39464855 0.2539085 -0.11248819 -0.28606963 0.30933386 0.024838936
0.06611641 -0.38607037 0.12861282 0.13618843 0.47230175 -0.39981705 0.55151993 0.027574228
-0.091027245 0.037677974 0.05983152 0.26222137 0.42860445 -0.36605948 0.08917079 0.5193255
-0.123466335 0.007963974 0.3070725 0.19885157 -0.2991535 -0.097553134 -0.13240886 0.4138236
0.18409005 -0.15550807 -0.4236403 -0.2671458 0.0490424 -0.027831143 0.15686147 0.23635983
0.38415867 -0.25306916 0.33560562 -0.08140485 -0.19214834 -0.18469779 -0.1082768 0.50782454
-0.026044028 -0.25959578 -0.035066936 -0.48091948 0.028483568 -0.31626907 -0.047741707 0.22204585
00000000: 7fa2 0d3e ae7d 373e 2fa0 68be ca3e d7bd
00000010: 5146 94be c5b0 273e 77a0 98be ca27 98bd
00000020: 8367 3d3e 59f5 8cbd cb18 1bbf a895 bc3d
00000030: ea10 863e 6be8 c8be 6856 4ebe 27ca 39be
00000040: 831f 8cbd 494e 2abd 955a 13be 1b6f 943e
00000050: d152 f53d bcf0 3bbf 56d5 7bbd ed70 80be
00000060: eb45 a8be 9ef8 cbbe 485a 79be 9a79 293e
00000070: f1ec ff3e bba2 913e 5e1f 273f 9ebd 393e
00000080: 5d76 453e 35db ac3e d7bb 6d3e d12a 85be
00000090: a86f 413e 4736 023d 38ca 5e3e 5d2c 66be
000000a0: 8058 083e a935 f3be b045 b9bd d283 4ebe
000000b0: bb99 d6bc 31d3 03be bdd8 343e 7202 cd3e
000000c0: 9e34 62bd 068d c63d 6f2a b0bd ca1b d9bd
000000d0: a559 fd3e 9c35 76be fc70 8ebe b880 f33e
000000e0: 8d89 3a3d 2f7a 97be 765f 313d e5ba 85be
000000f0: ef8e acbe 1d0e 8cbe f7d4 38be fb0d 783e
00000100: 1a55 9c3e d2c2 683e 5116 ca3d aea5 d63e
00000110: b41f 5abe d590 76be 17f0 acbe ea88 7d3e
00000120: 674f 103f 7e96 cebd c5af ffbe 453f 0bbd
00000130: 0299 26be f0ea b7be e7cc 833e 120b 933e
00000140: 1975 bf3e 1439 05bd b5f0 6f3e bc26 dfbe
00000150: e82c 1c3e 09a1 44be 9102 b83e d750 e23e
00000160: b121 ebbd 0693 493c 2833 823e 2cf2 75bd
00000170: 1b99 f03d 2beb 573e 60f1 2e3f 5567 7f3e
00000180: be7c ac3e 39f1 48be 5860 4d3b f34b 353e
00000190: b6f4 30be 1a6c 963e 4578 91be 8227 983e
000001a0: aee2 8fbd b8a2 823e dc0a a23c 64a7 22bd
000001b0: 5f31 463d e370 3dbe dd35 67be 4c78 58be
000001c0: 05e8 70bc 4713 debd fdec 17bc 8add d8be
000001d0: fc98 c7bc 7a2c 463e 3543 963e 309f 8e3e
000001e0: 4d1e d73e fb37 b9be 9ae7 b7be a506 37bf
000001f0: 1681 db3e 7f9d febe 372d 243f 2691 d53d
00000200: 6585 1ebd 43fd 99be 56ac 17bd 0386 44bd
00000210: ed5c 72be 1590 57be a4e4 81be 8167 4cbe
00000220: 9b8f dfbe 3fe6 aebe daba 3f3e 2fef 213f
00000230: 8a2c 053e 9627 a7be b495 11be ef57 24be
00000240: 9c11 6fbe 1bd6 503e 4ce9 85be 1518 3bbe
00000250: 361f 5d3d db17 1fbd 27a0 e73d 93d2 9bbe
00000260: aadf d4bc d369 d9bd 377a a8bd 23a7 183e
00000270: 51ba 09bd 5fc7 b3bd 5da3 6a3e 8683 f7be
00000280: 1223 88bd 82e3 18be cfb9 13bd eff0 30bd
00000290: 4e37 89bd 9937 a0be eda3 2a3d 6064 6c3e
000002a0: 2625 efbc 9b89 88be 8520 75be 5617 efbc
000002b0: 8c06 09bd 5254 85be 8859 ad3e 7938 2b3e
000002c0: 78d3 cd3d 7e4c 823e 91d4 dabd c205 003c
000002d0: f0ee 583e a259 e53d 8db2 8c3e ad25 80be
000002e0: 11f8 113e 78d5 a33c 9154 83be 478d b73b
000002f0: ea43 a43e ace2 a9bc 7e14 d83e f7ff aebd
00000300: 3e3a 9f3e e195 533e a76f c7be ecf5 973e
00000310: bd59 973d 0e0b 483d c18b c4be be53 ed3b
00000320: a398 703e 0891 213e 600f cabe 4b00 823e
00000330: 3560 e6bd b877 92be 0261 9e3e 067b cb3c
00000340: 0a68 873d 04ab c5be 14b3 033e fb74 0b3e
00000350: 89d1 f13e d2b4 ccbe 6930 0d3f 59e3 e13c
00000360: 7e6c babd 3854 1a3d e511 753d e141 863e
00000370: 0b72 db3e 266c bbbe 2d9f b63d 84f2 043f
00000380: ebdb fcbd 547b 023c 9b38 9d3e bf9f 4b3e
00000390: a62a 99be f0c9 c7bd 3096 07be b0e0 d33e
000003a0: 1a82 3c3e 823d 1fbe 62e7 d8be 56c7 88be
000003b0: afe0 483d 23fe e3bc 4ba0 203e 5008 723e
000003c0: 72b0 c43e 4892 81be 80d4 ab3e 96b7 a6bd
000003d0: 89c2 44be 6b21 3dbe 3ac0 ddbd ca00 023f
000003e0: 495a d5bc bde9 84be 59a2 0fbd 143b f6be
000003f0: 5f56 e93c 05ee a1be cf8c 43bd fd5f 633e

trend_stack.0.rnn.bias_ih_l0 f4 [32]
0.33715764 -0.20128275 0.4983711 -0.02633187 0.24690123 -0.19820367 0.26070195 -0.019080684
0.27219597 0.02461298 -0.0994733 0.18782933 -0.06998 -0.22295785 0.17351146 -0.41161233
-0.18629153 -0.24720396 -0.2577073 0.19146666 0.0929018 -0.05649227 0.23567373 0.0704366
0.018496998 0.061078686 0.83409196 0.25297943 0.18798997 -0.060725246 -0.14587697 -0.009468976
00000000: ed9f ac3e 111d 4ebe 7f2a ff3e efb5 d7bc
00000010: add3 7c3e e7f5 4abe ba7a 853e 184f 9cbc
00000020: 455d 8b3e 29a1 c93c a8b8 cbbd 5556 403e
00000030: ad51 8fbd 104f 64be fdac 313e dabe d2be
00000040: 35c3 3ebe 0923 7dbe 36f2 83be d60f 443e
00000050: 4d43 be3d 7064 67bd 7454 713e 1041 903d
00000060: 0487 973c a52d 7a3d 0d87 553f 8586 813e
00000070: 7180 403e 09bb 78bd c660 15be c423 1bbc

trend_stack.0.rnn.bias_hh_l0 f4 [32]
-0.21261013 0.19527146 0.6803844 -0.082881406 -0.09268212 0.0055728466 0.06155117 0.3231892
-0.27868247 -0.0006888175 0.08947485 0.1643016 -0.18673725 0.25935388 -0.1836931 0.007560198
-0.27492532 -0.31922245 0.27274686 -0.11226067 0.18699029 0.06847467 0.06730414 0.3467785
0.31750283 -0.009661163 0.32562807 0.30868834 -0.26780364 0.37854534 0.03247385 0.24246426
00000000: 78b6 59be 3ef5 473e ac2d 2e3f babd a9bd
00000010: 20d0 bdbd 6d9c b63b 141d 7c3d 0e79 a53e
00000020: 78af 8ebe c391 34ba 973e b73d ae3e 283e
00000030: 0d38 3fbe 08ca 843e 0b1a 3cbe 8abb f73b
00000040: 03c3 8cbe 2071 a3be 7aa5 8b3e ece8 e5bd
00000050: 627a 3f3e 733c 8c3d c1d6 893d f48c b13e
00000060: bb8f a23e db49 1ebc b9b8 a63e 660c 9e3e
00000070: 8f1d 89be b2d0 c13e 4d03 053d 8d48 783e

trend_stack.0.theta_b_fc.weight f4 [8, 168]
0.3442709 -0.2796328 -1.171077 0.73312813 0.22337723 -0.08134685 -0.17027931 0.31192848
0.29381478 -0.16161625 -0.35723826 -0.088913284 0.11449731 0.13204816 0.01799599 0.37933463
0.102013014 0.04506716 -0.1427934 0.0706502 0.040768236 -0.33312142 0.07288543 -0.0053300713
0.019429224 0.019542843 -0.03866767 0.073058955 0.099573545 -0.30750284 -0.08018687 0.0117637785
0.04671462 -0.02037429 -0.03970282 -0.027489388 -0.007965244 -0.102952726 -0.1002692 0.06349003
-0.13980463 0.08414163 0.117326155 -0.14510968 0.26180848 -0.31126082 0.018921422 0.059830084
-0.07442574 -0.020788878 0.019540163 0.15317397 0.16029707 -0.33484307 -0.019362297 0.1815941
-0.19282603 -0.100104965 -0.044501066 0.020221172 0.10945841 -0.3725171 0.0043063555 -0.032679424
-0.10494254 0.19743402 0.07529542 0.0003182023 0.26956776 -0.20502149 -0.10438822 0.19837497
0.020006806 0.115274936 -0.025392512 -0.020483283 0.10888036 -0.19777972 -0.14666408 0.0070790974
-0.01523473 0.15006341 -0.10983248 0.0076977583 0.06253892 0.010050011 0.13773172 -0.047927078
-0.05659173 -0.10100003 -0.26566553 0.07466756 -0.34721577 0.08511789 -0.007594196 -0.10403038
0.062032152 -0.04956444 -0.2239862 -0.4128144 0.18502635 -0.17844512 0.04663531 -0.09661005
-0.0017449594 -0.19767644 0.038426105 -0.70197827 0.25913382 0.049874507 -0.09205231 -0.031303428
0.08521346 0.008905564 -0.24484739 -0.1302169 0.17717211 -0.20996393 0.01573687 -0.05514744
0.22360165 0.0042483825 -0.22438931 -0.2955241 -0.058846794 -0.066946164 -0.1639164 0.1015397
0.1926106 -0.19401538 -0.20227177 -0.13213266 -0.3090116 0.039194442 -0.18934688 0.043874558
0.3012284 -0.093836516 0.005651316 -0.2607443 -0.25997433 0.0021160624 0.033661507 0.09515595
-0.015995406 0.12830126 -0.56681997 -0.10407162 0.10107481 -0.19183871 -0.005161441 0.12082083
-0.023536973 0.06290872 -0.08730347 -0.13601021 0.11681277 -0.2645915 -0.019561691 0.009904784
-0.031635623 0.010911532 -0.030777924 -0.08398028 0.24086623 -0.43002692 0.21337433 -0.09772776
-0.050468124 0.0177573 0.2070362 -0.124449894 0.16861545 0.14355761 -7.525778e-05 -0.16552268
-0.12652671 0.21372049 0.50400704 0.06908611 0.04319115 0.058861878 0.053405523 0.059746925
0.15017852 -0.041552782 0.4576585 0.41786504 -0.030291658 -0.101549156 -0.16236539 -0.10148022
0.09635701 -0.008257308 -0.027462576 0.05832769 0.11361231 -0.06594145 -0.11649909 -0.07003408
-0.011224456 -0.080501996 0.069571644 -0.02174532 0.11693722 -0.28562927 -0.037804723 -0.069289885
-0.0033193736 0.0175632 -0.067208104 -0.08021094 -0.027225437 -0.31293035 -0.022886004 0.0017916462
-0.09351904 0.012759122 -0.03524243 0.05730398 -0.028347487 -0.051214285 0.062865004 -0.122072235
0.02387082 0.07531826 0.054422926 0.059596792 -0.05318091 0.053609915 -0.05012593 0.052910533
-0.04909313 -0.015970167 -0.050574593 -0.09477621 0.09934092 0.014865147 -0.073079996 -0.03302271
0.014293269 -0.033027004 -0.022676945 -0.090873376 0.05289587 0.07183257 -0.055685755 -0.020733707
0.10641923 -0.035704777 -0.0675872 0.031171804 0.053993218 -0.0055340608 -0.02724402 -0.049769994
00000000: 4744 b03e 082c 8fbe dae5 95bf 49ae 3b3f
00000010: 00bd 643e 2d99 a6bd b35d 2ebe 17b5 9f3e
00000020: e46e 963e bb7e 25be efe7 b6be 2b18 b6bd
00000030: 917d ea3d a237 073e 546c 933c 2638 c23e
00000040: 33ec d03d 5898 383d 6f38 12be 0db1 903d
00000050: 98fc 263d e48e aabe f544 953d e1a7 aebb
00000060: 092a 9f3c 5018 a03c fe61 1ebd ef9f 953d
00000070: 37ed cb3d 0371 9dbe 0439 a4bd ddbc 403c
00000080: d457 3f3d fce7 a6bc 6d9f 22bd 6d31 e1bc
00000090: a880 02bc e1d8 d2bd f059 cdbd 1007 823d
000000a0: f228 0fbe 7252 ac3d b248 f03d a297 14be
000000b0: c30b 863e 945d 9fbe 1901 9b3c 6410 753d
000000c0: 866c 98bd 704d aabc b112 a03c a3d9 1c3e
000000d0: ea24 243e 8d70 abbe ae9d 9ebc cef3 393e
000000e0: 3074 45be d503 cdbd c046 36bd dfa6 a53c
000000f0: bb2b e03d 90ba bebe 541c 8d3b dcda 05bd
00000100: 1dec d6bd 252c 4a3e 7c34 9a3d 64d4 a639
00000110: c904 8a3e 27f1 51be 7ec9 d5bd cf22 4b3e
00000120: 50e5 a33c 4415 ec3d f503 d0bc 8fcc a7bc
00000130: abfc de3d c486 4abe 1c2f 16be c6f7 e73b
00000140: 179b 79bc 39aa 193e daef e0bd 7a3d fc3b
00000150: 6814 803d cda8 243c 8b09 0d3e 2f4f 44bd
00000160: bbcc 67bd 1bd9 cebd 5005 88be 4eeb 983d
00000170: 44c6 b1be 4a52 ae3d bcd8 f8bb e10d d5bd
00000180: 6d15 7e3d 1504 4bbd a35c 65be 695c d3be
00000190: 8c77 3d3e 51ba 36be ab04 3f3d 7ddb c5bd
000001a0: 1fb7 e4ba b16b 4abe b164 1d3d d9b4 33bf
000001b0: 30ad 843e 3649 4c3d ec85 bcbd 0638 00bd
000001c0: 6584 ae3d a5e8 113c 46b9 7abe 9457 05be
000001d0: 9b6c 353e c900 57be 9cea 803c 48e2 61bd
000001e0: d5f7 643e 0436 8b3b 50c6 65be ef4e 97be
000001f0: 5609 71bd 121b 89bd b3d9 27be 0cf4 cf3d
00000200: b73b 453e f8ab 46be 5520 4fbe c94d 07be
00000210: c536 9ebe 5a8a 203d 26e4 41be cfb5 333d
00000220: 9c3a 9a3e 5c2d c0bd ad2e b93b 4780 85be
00000230: 5b1b 85be a3ad 0a3b a6e0 093d 1fe1 c23d
00000240: cc08 83bc 6861 033e 1d1b 11bf 8023 d5bd
00000250: 4f00 cf3d 5e71 44be 4e21 a9bb e970 f73d
00000260: 9cd0 c0bc 49d6 803d 29cc b2bd 4346 0bbe
00000270: 893b ef3d 8978 87be d73f a0bc ad47 223c
00000280: 5b94 01bd 48c6 323c fc21 fcbc dafd abbd
00000290: a3a5 763e 7d2c dcbe cd7e 5a3e 7e25 c8bd
000002a0: aab7 4ebd c277 913c 4c01 543e 96df febd
000002b0: 87a9 2c3e c400 133e b7d3 9db8 c77e 29be
000002c0: 3890 01be 8bd9 5a3e 9b06 013f 057d 8d3d
000002d0: 34e9 303d 2719 713d c0bf 5a3d 31b9 743d
000002e0: 66c8 193e 4033 2abd 3752 ea3e 68f2 d53e
000002f0: 3626 f8bc 01f9 cfbd 1d43 26be ddd4 cfbd
00000300: d356 c53d a949 07bc 32f9 e0bc 04e9 6e3d
00000310: 92ad e83d 500c 87bd 1397 eebd 076e 8fbd
00000320: c8e6 37bc 3bde a4bd 947b 8e3d 3e23 b2bc
00000330: c87c ef3d 003e 92be 20d9 1abd dbe7 8dbd
00000340: d989 59bb b3e0 8f3c 67a4 89bd a245 a4bd
00000350: e107 dfbc 6838 a0be 6e7b bbbc acd5 ea3a
00000360: e986 bfbd a30b 513c 5e5a 10bd 94b7 6a3d
00000370: fd38 e8bc 12c6 51bd 5ebf 803d 0201 fabd
00000380: bd8c c33c 7640 9a3d 93ea 5e3d c41b 743d
00000390: 3ad4 59bd 1296 5b3d d950 4dbd b7b8 583d
000003a0: e115 49bd ded3 82bc 4e27 4fbd 081a c2bd
000003b0: 4173 cb3d f28c 733c f7aa 95bd d242 07bd
000003c0: 512e 6a3c 5347 07bd 00c5 b9bc d21b babd
000003d0: 57a9 583d f41c 933d bf16 64bd bcd9 a9bc
000003e0: 53f2 d93d 2c3f 12bd 286b 8abd 035c ff3c
000003f0: fe27 5d3d 1157 b5bb da2e dfbc 9fdb 4bbd

trend_stack.0.theta_f_fc.weight f4 [8, 168]
0.30149522 -0.08448399 -0.38063446 0.2584673 0.02179512 -0.07899289 0.01964051 0.051719185
-0.0012106195 -0.1205476 -0.11710235 -0.08426705 -0.007161283 0.08937349 -0.006433646 -0.021409336
0.18922104 0.040578067 -0.065121956 0.04693336 0.1693084 -0.035374433 0.04084829 0.02555873
0.07673435 -0.046968356 -0.046577457 0.0044450834 0.18404649 -0.2576775 0.010831568 -0.0015846096
0.1437332 0.017236423 -0.044307817 -0.06738641 0.14522335 -0.13611712 0.09230163 -0.02397787
-0.095966 0.0016742281 0.0010789377 0.09814608 0.20207752 -0.28421322 0.027982337 -0.12104188
-0.10497286 0.051580153 -0.11076007 -0.06371353 0.09728909 -0.09925896 0.048583303 -0.09262894
-0.17801125 0.057045694 -0.08580865 -0.048247103 0.14757094 -0.12206977 -0.009434041 -0.1927552
-0.20119596 -0.02959525 -0.026462363 0.09669545 -0.023932343 -0.14290938 -0.13138902 0.03150371
-0.111117244 -0.071044974 -0.015448922 -0.010429278 0.0006662592 -0.05207029 -0.14414462 -0.02858816
0.04319164 -0.05480434 0.028473949 0.10751147 -0.047665223 -0.19619587 0.010436859 -0.019422576
-0.014124796 -0.03172141 -0.01819533 0.05344109 -0.051562306 -0.06768368 -0.006228549 -0.05056564
-0.010471349 -0.04441848 0.0005020773 -0.081660375 0.053920805 -0.084080026 0.029792536 -0.14779697
0.004211146 -0.027047673 0.050610356 -0.10744337 0.031945124 -0.06905676 -0.021994792 -0.054040186
0.029865334 -0.014374283 -0.06972718 0.0154661285 -0.014868579 -0.06781319 0.11146804 -0.020630788
-0.025023041 -0.03968927 -0.1399302 -0.06643135 -0.11430396 -0.020560917 0.020365462 -0.040348377
0.06195068 -0.09178467 -0.13114692 -0.022140577 -0.12895611 -0.039025437 -0.08283649 0.0016380341
0.0025530485 -0.068063274 -0.07023728 0.0031598604 -0.073978834 -0.08859801 0.027210051 -0.032255433
-0.11898361 -0.06897752 -0.19645518 -0.08865465 -0.06541531 -0.04304315 0.015239473 -0.029823137
-0.061266422 -0.036662355 -0.05307341 -0.023323458 0.009600175 -0.05661463 0.0064876066 -0.07094673
-0.10984937 -0.09168674 0.021777892 0.025241667 0.13304292 -0.19195077 0.07137946 -0.06544699
-0.23663427 0.17792264 0.5692628 -0.38132432 -0.14178896 0.07863843 0.00036956463 -0.12942354
-0.011942127 0.15536997 0.29885274 0.06955913 -0.1208071 -0.18744595 0.03672071 0.033713408
-0.079039745 -0.009071483 0.18705721 -0.09802054 -0.06676437 0.024141656 -0.07770159 -0.18725622
0.012667098 0.12531045 0.013692818 -0.01945194 -0.19112839 0.1724116 0.06650068 -0.06549091
0.020404493 0.1022074 0.03527057 0.05689108 -0.052716255 0.08565186 -0.04830723 -0.004071676
0.063646 -0.09272136 -0.07687311 0.045533877 -0.18444242 0.2825428 0.009437895 -0.049707007
0.105201855 0.027374035 0.046293758 0.012720128 -0.068390876 0.17303757 0.022790072 -0.05609521
0.2101855 -0.014671054 0.0583034 0.06556148 -0.28989264 0.16789418 -0.025112106 0.012233379
0.16586494 -0.16950831 0.038083516 -0.13659136 -0.19623303 0.06593168 0.114450194 -0.14156768
0.01256041 -0.09290659 0.0597502 -9.173579e-05 -0.112660065 0.09088275 0.08253932 -0.011809494
4.384968e-05 -0.12774493 -0.054473236 -0.032485828 0.060574897 0.11757308 -0.02555965 0.036295697
00000000: 955d 9a3e f105 adbd 85e2 c2be d355 843e
00000010: ae8b b23c 06c7 a1bd 23e5 a03c 7fd7 533d
00000020: a6ad 9eba a9e1 f6bd 5bd3 efbd 3494 acbd
00000030: 32a9 eabb 7309 b73d 56d1 d2bb a262 afbc
00000040: 29c3 413e 3035 263d a95e 85bd 323d 403d
00000050: 2e5f 2d3e c8e4 10bd 8950 273d 8b60 d13c
00000060: e626 9d3d e461 40bd 01c8 3ebd 10a8 913b
00000070: af76 3c3e 4eee 83be e476 313c adb2 cfba
00000080: cc2e 133e 6633 8d3c 1d7c 35bd e301 8abd
00000090: 6eb5 143e 4962 0bbe a308 bd3d 3d6d c4bc
000000a0: d289 c4bd c671 db3a 246b 8d3a d000 c93d
000000b0: 69ed 4e3e 6584 91be 373b e53c cee4 f7bd
000000c0: 03fc d6bd b645 533d 2dd6 e2bd 3d7c 82bd
000000d0: 813f c73d 4848 cbbd 49ff 463d 3eb4 bdbd
000000e0: 9548 36be bfa8 693d 72bc afbd c19e 45bd
000000f0: d61c 173e b7ff f9bd 3c91 1abc 9f61 45be
00000100: 5006 4ebe bd71 f2bc 99c7 d8bc 4408 c63d
00000110: c30d c4bc d656 12be d88a 06be 090a 013d
00000120: 7091 e3bd 0780 91bd 7a1d 7dbc 90df 2abc
00000130: e6a7 2e3a a847 55bd a69a 13be b831 eabc
00000140: b8e9 303d 847a 60bd 3342 e93c f92e dc3d
00000150: 9c3c 43bd 92e7 48be 5cff 2a3c 181c 9fbc
00000160: b06b 67bc 4fee 01bd 5f0e 95bc 0be5 5a3d
00000170: ff32 53bd be9d 8abd db18 ccbb eb1d 4fbd
00000180: 0590 2bbc 27f0 35bd d69d 033a 8e3d a7bd
00000190: 10dc 5c3d 2632 acbd 7a0f f43c 1758 17be
000001a0: a7fd 893b 1593 ddbc ce4c 4f3d 450b dcbd
000001b0: e4d8 023d a16d 8dbd 6c2e b4bc 3e59 5dbd
000001c0: 25a8 f43c 1d82 6bbc 20cd 8ebd a565 7d3c
000001d0: 579b 73bc a4e1 8abd 5b49 e43d e601 a9bc
000001e0: 1ffd ccbc 3791 22bd dd49 0fbe 290d 88bd
000001f0: 3218 eabd 5e6f a8bc 78d5 a63c 5744 25bd
00000200: ffbf 7d3d 9af9 bbbd 614b 06be 2860 b5bc
00000210: 120d 04be 23d9 1fbd 2da6 a9bd 4eb3 d63a
00000220: 0c51 273b c264 8bbd 90d8 8fbd a915 4f3b
00000230: 3782 97bd e072 b5bd 9de7 de3c 461e 04bd
00000240: aead f3bd 1644 8dbd 8c2b 49be 9290 b5bd
00000250: 76f8 85bd 044e 30bd fcae 793c a74f f4bc
00000260: 80f2 7abd 442b 16bd 8163 59bd d610 bfbc
00000270: 0d4a 1d3c bee4 67bd fd95 d43b 854c 91bd
00000280: b5f8 e0bd 42c6 bbbd 8d67 b23c 9dc7 ce3c
00000290: 673c 083e be8e 44be 652f 923d 1209 86bd
000002a0: 4150 72be 5a31 363e 35bb 113f f13c c3be
000002b0: 2031 11be 2f0d a13d 20c2 c139 9b87 04be
000002c0: e9a8 43bc 4e19 1f3e 3a03 993e 0475 8e3d
000002d0: b669 f7bd d5f1 3fbe 7568 163d 1217 0a3d
000002e0: 97df a1bd 8fa0 14bc ed8b 3f3e febe c8bd
000002f0: c2bb 88bd b9c4 c53c 0322 9fbd 18c0 3fbe
00000300: a989 4f3c 6251 003e d757 603c ad59 9fbc
00000310: 29b7 43be ab8c 303e 8231 883d 1920 86bd
00000320: 5327 a73c 1d52 d13d e077 103d 9f06 693d
00000330: 00ed 57bd 3e6a af3d cddd 45bd b26b 85bb
00000340: d658 823d b2e4 bdbd a66f 9dbd bb81 3a3d
00000350: 79de 3cbe 73a9 903e 67a1 1a3c 9399 4bbd
00000360: 1274 d73d 833f e03c 869e 3d3d 1568 503c
00000370: 8410 8cbd c330 313e 3fb2 ba3c 17c4 65bd
00000380: de3a 573e dc5e 70bc 8ccf 6e3d 1945 863d
00000390: cf6c 94be 74ec 2b3e e7b7 cdbc 836e 483c
000003a0: 80d8 293e 9693 2dbe 76fd 1b3d 9bde 0bbe
000003b0: 50f1 48be 3007 873d dd64 ea3d 1ef7 10be
000003c0: 2eca 4d3c cf45 bebd a0bc 743d 4762 c0b8
000003d0: 52ba e6bd bc20 ba3d 600a a93d 9c7c 41bc
000003e0: 3ceb 3738 91cf 02be 541f 5fbd dc0f 05bd
000003f0: 621d 783d 28ca f03d 7962 d1bc ccaa 143d
